T5ForConditionalGeneration(
  (shared): Embedding(384, 1472)
  (encoder): T5Stack(
    (embed_tokens): Embedding(384, 1472)
    (block): ModuleList(
      (0): T5Block(
        (layer): ModuleList(
          (0): T5LayerSelfAttention(
            (SelfAttention): T5Attention(
              (q): Linear(in_features=1472, out_features=384, bias=False)
              (k): Linear(in_features=1472, out_features=384, bias=False)
              (v): Linear(in_features=1472, out_features=384, bias=False)
              (o): Linear(in_features=384, out_features=1472, bias=False)
              (relative_attention_bias): Embedding(32, 6)
            )
            (layer_norm): T5LayerNorm()
            (dropout): Dropout(p=0.1, inplace=False)
          )
          (1): T5LayerFF(
            (DenseReluDense): T5DenseGatedGeluDense(
              (wi_0): Linear(in_features=1472, out_features=3584, bias=False)
              (wi_1): Linear(in_features=1472, out_features=3584, bias=False)
              (wo): Linear(in_features=3584, out_features=1472, bias=False)
              (dropout): Dropout(p=0.1, inplace=False)
            )
            (layer_norm): T5LayerNorm()
            (dropout): Dropout(p=0.1, inplace=False)
          )
        )
      )
      (1): T5Block(
        (layer): ModuleList(
          (0): T5LayerSelfAttention(
            (SelfAttention): T5Attention(
              (q): Linear(in_features=1472, out_features=384, bias=False)
              (k): Linear(in_features=1472, out_features=384, bias=False)
              (v): Linear(in_features=1472, out_features=384, bias=False)
              (o): Linear(in_features=384, out_features=1472, bias=False)
            )
            (layer_norm): T5LayerNorm()
            (dropout): Dropout(p=0.1, inplace=False)
          )
          (1): T5LayerFF(
            (DenseReluDense): T5DenseGatedGeluDense(
              (wi_0): Linear(in_features=1472, out_features=3584, bias=False)
              (wi_1): Linear(in_features=1472, out_features=3584, bias=False)
              (wo): Linear(in_features=3584, out_features=1472, bias=False)
              (dropout): Dropout(p=0.1, inplace=False)
            )
            (layer_norm): T5LayerNorm()
            (dropout): Dropout(p=0.1, inplace=False)
          )
        )
      )
      (2): T5Block(
        (layer): ModuleList(
          (0): T5LayerSelfAttention(
            (SelfAttention): T5Attention(
              (q): Linear(in_features=1472, out_features=384, bias=False)
              (k): Linear(in_features=1472, out_features=384, bias=False)
              (v): Linear(in_features=1472, out_features=384, bias=False)
              (o): Linear(in_features=384, out_features=1472, bias=False)
            )
            (layer_norm): T5LayerNorm()
            (dropout): Dropout(p=0.1, inplace=False)
          )
          (1): T5LayerFF(
            (DenseReluDense): T5DenseGatedGeluDense(
              (wi_0): Linear(in_features=1472, out_features=3584, bias=False)
              (wi_1): Linear(in_features=1472, out_features=3584, bias=False)
              (wo): Linear(in_features=3584, out_features=1472, bias=False)
              (dropout): Dropout(p=0.1, inplace=False)
            )
            (layer_norm): T5LayerNorm()
            (dropout): Dropout(p=0.1, inplace=False)
          )
        )
      )
      (3): T5Block(
        (layer): ModuleList(
          (0): T5LayerSelfAttention(
            (SelfAttention): T5Attention(
              (q): Linear(in_features=1472, out_features=384, bias=False)
              (k): Linear(in_features=1472, out_features=384, bias=False)
              (v): Linear(in_features=1472, out_features=384, bias=False)
              (o): Linear(in_features=384, out_features=1472, bias=False)
            )
            (layer_norm): T5LayerNorm()
            (dropout): Dropout(p=0.1, inplace=False)
          )
          (1): T5LayerFF(
            (DenseReluDense): T5DenseGatedGeluDense(
              (wi_0): Linear(in_features=1472, out_features=3584, bias=False)
              (wi_1): Linear(in_features=1472, out_features=3584, bias=False)
              (wo): Linear(in_features=3584, out_features=1472, bias=False)
              (dropout): Dropout(p=0.1, inplace=False)
            )
            (layer_norm): T5LayerNorm()
            (dropout): Dropout(p=0.1, inplace=False)
          )
        )
      )
      (4): T5Block(
        (layer): ModuleList(
          (0): T5LayerSelfAttention(
            (SelfAttention): T5Attention(
              (q): Linear(in_features=1472, out_features=384, bias=False)
              (k): Linear(in_features=1472, out_features=384, bias=False)
              (v): Linear(in_features=1472, out_features=384, bias=False)
              (o): Linear(in_features=384, out_features=1472, bias=False)
            )
            (layer_norm): T5LayerNorm()
            (dropout): Dropout(p=0.1, inplace=False)
          )
          (1): T5LayerFF(
            (DenseReluDense): T5DenseGatedGeluDense(
              (wi_0): Linear(in_features=1472, out_features=3584, bias=False)
              (wi_1): Linear(in_features=1472, out_features=3584, bias=False)
              (wo): Linear(in_features=3584, out_features=1472, bias=False)
              (dropout): Dropout(p=0.1, inplace=False)
            )
            (layer_norm): T5LayerNorm()
            (dropout): Dropout(p=0.1, inplace=False)
          )
        )
      )
      (5): T5Block(
        (layer): ModuleList(
          (0): T5LayerSelfAttention(
            (SelfAttention): T5Attention(
              (q): Linear(in_features=1472, out_features=384, bias=False)
              (k): Linear(in_features=1472, out_features=384, bias=False)
              (v): Linear(in_features=1472, out_features=384, bias=False)
              (o): Linear(in_features=384, out_features=1472, bias=False)
            )
            (layer_norm): T5LayerNorm()
            (dropout): Dropout(p=0.1, inplace=False)
          )
          (1): T5LayerFF(
            (DenseReluDense): T5DenseGatedGeluDense(
              (wi_0): Linear(in_features=1472, out_features=3584, bias=False)
              (wi_1): Linear(in_features=1472, out_features=3584, bias=False)
              (wo): Linear(in_features=3584, out_features=1472, bias=False)
              (dropout): Dropout(p=0.1, inplace=False)
            )
            (layer_norm): T5LayerNorm()
            (dropout): Dropout(p=0.1, inplace=False)
          )
        )
      )
      (6): T5Block(
        (layer): ModuleList(
          (0): T5LayerSelfAttention(
            (SelfAttention): T5Attention(
              (q): Linear(in_features=1472, out_features=384, bias=False)
              (k): Linear(in_features=1472, out_features=384, bias=False)
              (v): Linear(in_features=1472, out_features=384, bias=False)
              (o): Linear(in_features=384, out_features=1472, bias=False)
            )
            (layer_norm): T5LayerNorm()
            (dropout): Dropout(p=0.1, inplace=False)
          )
          (1): T5LayerFF(
            (DenseReluDense): T5DenseGatedGeluDense(
              (wi_0): Linear(in_features=1472, out_features=3584, bias=False)
              (wi_1): Linear(in_features=1472, out_features=3584, bias=False)
              (wo): Linear(in_features=3584, out_features=1472, bias=False)
              (dropout): Dropout(p=0.1, inplace=False)
            )
            (layer_norm): T5LayerNorm()
            (dropout): Dropout(p=0.1, inplace=False)
          )
        )
      )
      (7): T5Block(
        (layer): ModuleList(
          (0): T5LayerSelfAttention(
            (SelfAttention): T5Attention(
              (q): Linear(in_features=1472, out_features=384, bias=False)
              (k): Linear(in_features=1472, out_features=384, bias=False)
              (v): Linear(in_features=1472, out_features=384, bias=False)
              (o): Linear(in_features=384, out_features=1472, bias=False)
            )
            (layer_norm): T5LayerNorm()
            (dropout): Dropout(p=0.1, inplace=False)
          )
          (1): T5LayerFF(
            (DenseReluDense): T5DenseGatedGeluDense(
              (wi_0): Linear(in_features=1472, out_features=3584, bias=False)
              (wi_1): Linear(in_features=1472, out_features=3584, bias=False)
              (wo): Linear(in_features=3584, out_features=1472, bias=False)
              (dropout): Dropout(p=0.1, inplace=False)
            )
            (layer_norm): T5LayerNorm()
            (dropout): Dropout(p=0.1, inplace=False)
          )
        )
      )
      (8): T5Block(
        (layer): ModuleList(
          (0): T5LayerSelfAttention(
            (SelfAttention): T5Attention(
              (q): Linear(in_features=1472, out_features=384, bias=False)
              (k): Linear(in_features=1472, out_features=384, bias=False)
              (v): Linear(in_features=1472, out_features=384, bias=False)
              (o): Linear(in_features=384, out_features=1472, bias=False)
            )
            (layer_norm): T5LayerNorm()
            (dropout): Dropout(p=0.1, inplace=False)
          )
          (1): T5LayerFF(
            (DenseReluDense): T5DenseGatedGeluDense(
              (wi_0): Linear(in_features=1472, out_features=3584, bias=False)
              (wi_1): Linear(in_features=1472, out_features=3584, bias=False)
              (wo): Linear(in_features=3584, out_features=1472, bias=False)
              (dropout): Dropout(p=0.1, inplace=False)
            )
            (layer_norm): T5LayerNorm()
            (dropout): Dropout(p=0.1, inplace=False)
          )
        )
      )
      (9): T5Block(
        (layer): ModuleList(
          (0): T5LayerSelfAttention(
            (SelfAttention): T5Attention(
              (q): Linear(in_features=1472, out_features=384, bias=False)
              (k): Linear(in_features=1472, out_features=384, bias=False)
              (v): Linear(in_features=1472, out_features=384, bias=False)
              (o): Linear(in_features=384, out_features=1472, bias=False)
            )
            (layer_norm): T5LayerNorm()
            (dropout): Dropout(p=0.1, inplace=False)
          )
          (1): T5LayerFF(
            (DenseReluDense): T5DenseGatedGeluDense(
              (wi_0): Linear(in_features=1472, out_features=3584, bias=False)
              (wi_1): Linear(in_features=1472, out_features=3584, bias=False)
              (wo): Linear(in_features=3584, out_features=1472, bias=False)
              (dropout): Dropout(p=0.1, inplace=False)
            )
            (layer_norm): T5LayerNorm()
            (dropout): Dropout(p=0.1, inplace=False)
          )
        )
      )
      (10): T5Block(
        (layer): ModuleList(
          (0): T5LayerSelfAttention(
            (SelfAttention): T5Attention(
              (q): Linear(in_features=1472, out_features=384, bias=False)
              (k): Linear(in_features=1472, out_features=384, bias=False)
              (v): Linear(in_features=1472, out_features=384, bias=False)
              (o): Linear(in_features=384, out_features=1472, bias=False)
            )
            (layer_norm): T5LayerNorm()
            (dropout): Dropout(p=0.1, inplace=False)
          )
          (1): T5LayerFF(
            (DenseReluDense): T5DenseGatedGeluDense(
              (wi_0): Linear(in_features=1472, out_features=3584, bias=False)
              (wi_1): Linear(in_features=1472, out_features=3584, bias=False)
              (wo): Linear(in_features=3584, out_features=1472, bias=False)
              (dropout): Dropout(p=0.1, inplace=False)
            )
            (layer_norm): T5LayerNorm()
            (dropout): Dropout(p=0.1, inplace=False)
          )
        )
      )
      (11): T5Block(
        (layer): ModuleList(
          (0): T5LayerSelfAttention(
            (SelfAttention): T5Attention(
              (q): Linear(in_features=1472, out_features=384, bias=False)
              (k): Linear(in_features=1472, out_features=384, bias=False)
              (v): Linear(in_features=1472, out_features=384, bias=False)
              (o): Linear(in_features=384, out_features=1472, bias=False)
            )
            (layer_norm): T5LayerNorm()
            (dropout): Dropout(p=0.1, inplace=False)
          )
          (1): T5LayerFF(
            (DenseReluDense): T5DenseGatedGeluDense(
              (wi_0): Linear(in_features=1472, out_features=3584, bias=False)
              (wi_1): Linear(in_features=1472, out_features=3584, bias=False)
              (wo): Linear(in_features=3584, out_features=1472, bias=False)
              (dropout): Dropout(p=0.1, inplace=False)
            )
            (layer_norm): T5LayerNorm()
            (dropout): Dropout(p=0.1, inplace=False)
          )
        )
      )
    )
    (final_layer_norm): T5LayerNorm()
    (dropout): Dropout(p=0.1, inplace=False)
  )
  (decoder): T5Stack(
    (embed_tokens): Embedding(384, 1472)
    (block): ModuleList(
      (0): T5Block(
        (layer): ModuleList(
          (0): T5LayerSelfAttention(
            (SelfAttention): T5Attention(
              (q): Linear(in_features=1472, out_features=384, bias=False)
              (k): Linear(in_features=1472, out_features=384, bias=False)
              (v): Linear(in_features=1472, out_features=384, bias=False)
              (o): Linear(in_features=384, out_features=1472, bias=False)
              (relative_attention_bias): Embedding(32, 6)
            )
            (layer_norm): T5LayerNorm()
            (dropout): Dropout(p=0.1, inplace=False)
          )
          (1): T5LayerCrossAttention(
            (EncDecAttention): T5Attention(
              (q): Linear(in_features=1472, out_features=384, bias=False)
              (k): Linear(in_features=1472, out_features=384, bias=False)
              (v): Linear(in_features=1472, out_features=384, bias=False)
              (o): Linear(in_features=384, out_features=1472, bias=False)
            )
            (layer_norm): T5LayerNorm()
            (dropout): Dropout(p=0.1, inplace=False)
          )
          (2): T5LayerFF(
            (DenseReluDense): T5DenseGatedGeluDense(
              (wi_0): Linear(in_features=1472, out_features=3584, bias=False)
              (wi_1): Linear(in_features=1472, out_features=3584, bias=False)
              (wo): Linear(in_features=3584, out_features=1472, bias=False)
              (dropout): Dropout(p=0.1, inplace=False)
            )
            (layer_norm): T5LayerNorm()
            (dropout): Dropout(p=0.1, inplace=False)
          )
        )
      )
      (1): T5Block(
        (layer): ModuleList(
          (0): T5LayerSelfAttention(
            (SelfAttention): T5Attention(
              (q): Linear(in_features=1472, out_features=384, bias=False)
              (k): Linear(in_features=1472, out_features=384, bias=False)
              (v): Linear(in_features=1472, out_features=384, bias=False)
              (o): Linear(in_features=384, out_features=1472, bias=False)
            )
            (layer_norm): T5LayerNorm()
            (dropout): Dropout(p=0.1, inplace=False)
          )
          (1): T5LayerCrossAttention(
            (EncDecAttention): T5Attention(
              (q): Linear(in_features=1472, out_features=384, bias=False)
              (k): Linear(in_features=1472, out_features=384, bias=False)
              (v): Linear(in_features=1472, out_features=384, bias=False)
              (o): Linear(in_features=384, out_features=1472, bias=False)
            )
            (layer_norm): T5LayerNorm()
            (dropout): Dropout(p=0.1, inplace=False)
          )
          (2): T5LayerFF(
            (DenseReluDense): T5DenseGatedGeluDense(
              (wi_0): Linear(in_features=1472, out_features=3584, bias=False)
              (wi_1): Linear(in_features=1472, out_features=3584, bias=False)
              (wo): Linear(in_features=3584, out_features=1472, bias=False)
              (dropout): Dropout(p=0.1, inplace=False)
            )
            (layer_norm): T5LayerNorm()
            (dropout): Dropout(p=0.1, inplace=False)
          )
        )
      )
      (2): T5Block(
        (layer): ModuleList(
          (0): T5LayerSelfAttention(
            (SelfAttention): T5Attention(
              (q): Linear(in_features=1472, out_features=384, bias=False)
              (k): Linear(in_features=1472, out_features=384, bias=False)
              (v): Linear(in_features=1472, out_features=384, bias=False)
              (o): Linear(in_features=384, out_features=1472, bias=False)
            )
            (layer_norm): T5LayerNorm()
            (dropout): Dropout(p=0.1, inplace=False)
          )
          (1): T5LayerCrossAttention(
            (EncDecAttention): T5Attention(
              (q): Linear(in_features=1472, out_features=384, bias=False)
              (k): Linear(in_features=1472, out_features=384, bias=False)
              (v): Linear(in_features=1472, out_features=384, bias=False)
              (o): Linear(in_features=384, out_features=1472, bias=False)
            )
            (layer_norm): T5LayerNorm()
            (dropout): Dropout(p=0.1, inplace=False)
          )
          (2): T5LayerFF(
            (DenseReluDense): T5DenseGatedGeluDense(
              (wi_0): Linear(in_features=1472, out_features=3584, bias=False)
              (wi_1): Linear(in_features=1472, out_features=3584, bias=False)
              (wo): Linear(in_features=3584, out_features=1472, bias=False)
              (dropout): Dropout(p=0.1, inplace=False)
            )
            (layer_norm): T5LayerNorm()
            (dropout): Dropout(p=0.1, inplace=False)
          )
        )
      )
      (3): T5Block(
        (layer): ModuleList(
          (0): T5LayerSelfAttention(
            (SelfAttention): T5Attention(
              (q): Linear(in_features=1472, out_features=384, bias=False)
              (k): Linear(in_features=1472, out_features=384, bias=False)
              (v): Linear(in_features=1472, out_features=384, bias=False)
              (o): Linear(in_features=384, out_features=1472, bias=False)
            )
            (layer_norm): T5LayerNorm()
            (dropout): Dropout(p=0.1, inplace=False)
          )
          (1): T5LayerCrossAttention(
            (EncDecAttention): T5Attention(
              (q): Linear(in_features=1472, out_features=384, bias=False)
              (k): Linear(in_features=1472, out_features=384, bias=False)
              (v): Linear(in_features=1472, out_features=384, bias=False)
              (o): Linear(in_features=384, out_features=1472, bias=False)
            )
            (layer_norm): T5LayerNorm()
            (dropout): Dropout(p=0.1, inplace=False)
          )
          (2): T5LayerFF(
            (DenseReluDense): T5DenseGatedGeluDense(
              (wi_0): Linear(in_features=1472, out_features=3584, bias=False)
              (wi_1): Linear(in_features=1472, out_features=3584, bias=False)
              (wo): Linear(in_features=3584, out_features=1472, bias=False)
              (dropout): Dropout(p=0.1, inplace=False)
            )
            (layer_norm): T5LayerNorm()
            (dropout): Dropout(p=0.1, inplace=False)
          )
        )
      )
    )
    (final_layer_norm): T5LayerNorm()
    (dropout): Dropout(p=0.1, inplace=False)
  )
  (lm_head): Linear(in_features=1472, out_features=384, bias=False)
)
Embedding(384, 1472)
T5Stack(
  (embed_tokens): Embedding(384, 1472)
  (block): ModuleList(
    (0): T5Block(
      (layer): ModuleList(
        (0): T5LayerSelfAttention(
          (SelfAttention): T5Attention(
            (q): Linear(in_features=1472, out_features=384, bias=False)
            (k): Linear(in_features=1472, out_features=384, bias=False)
            (v): Linear(in_features=1472, out_features=384, bias=False)
            (o): Linear(in_features=384, out_features=1472, bias=False)
            (relative_attention_bias): Embedding(32, 6)
          )
          (layer_norm): T5LayerNorm()
          (dropout): Dropout(p=0.1, inplace=False)
        )
        (1): T5LayerFF(
          (DenseReluDense): T5DenseGatedGeluDense(
            (wi_0): Linear(in_features=1472, out_features=3584, bias=False)
            (wi_1): Linear(in_features=1472, out_features=3584, bias=False)
            (wo): Linear(in_features=3584, out_features=1472, bias=False)
            (dropout): Dropout(p=0.1, inplace=False)
          )
          (layer_norm): T5LayerNorm()
          (dropout): Dropout(p=0.1, inplace=False)
        )
      )
    )
    (1): T5Block(
      (layer): ModuleList(
        (0): T5LayerSelfAttention(
          (SelfAttention): T5Attention(
            (q): Linear(in_features=1472, out_features=384, bias=False)
            (k): Linear(in_features=1472, out_features=384, bias=False)
            (v): Linear(in_features=1472, out_features=384, bias=False)
            (o): Linear(in_features=384, out_features=1472, bias=False)
          )
          (layer_norm): T5LayerNorm()
          (dropout): Dropout(p=0.1, inplace=False)
        )
        (1): T5LayerFF(
          (DenseReluDense): T5DenseGatedGeluDense(
            (wi_0): Linear(in_features=1472, out_features=3584, bias=False)
            (wi_1): Linear(in_features=1472, out_features=3584, bias=False)
            (wo): Linear(in_features=3584, out_features=1472, bias=False)
            (dropout): Dropout(p=0.1, inplace=False)
          )
          (layer_norm): T5LayerNorm()
          (dropout): Dropout(p=0.1, inplace=False)
        )
      )
    )
    (2): T5Block(
      (layer): ModuleList(
        (0): T5LayerSelfAttention(
          (SelfAttention): T5Attention(
            (q): Linear(in_features=1472, out_features=384, bias=False)
            (k): Linear(in_features=1472, out_features=384, bias=False)
            (v): Linear(in_features=1472, out_features=384, bias=False)
            (o): Linear(in_features=384, out_features=1472, bias=False)
          )
          (layer_norm): T5LayerNorm()
          (dropout): Dropout(p=0.1, inplace=False)
        )
        (1): T5LayerFF(
          (DenseReluDense): T5DenseGatedGeluDense(
            (wi_0): Linear(in_features=1472, out_features=3584, bias=False)
            (wi_1): Linear(in_features=1472, out_features=3584, bias=False)
            (wo): Linear(in_features=3584, out_features=1472, bias=False)
            (dropout): Dropout(p=0.1, inplace=False)
          )
          (layer_norm): T5LayerNorm()
          (dropout): Dropout(p=0.1, inplace=False)
        )
      )
    )
    (3): T5Block(
      (layer): ModuleList(
        (0): T5LayerSelfAttention(
          (SelfAttention): T5Attention(
            (q): Linear(in_features=1472, out_features=384, bias=False)
            (k): Linear(in_features=1472, out_features=384, bias=False)
            (v): Linear(in_features=1472, out_features=384, bias=False)
            (o): Linear(in_features=384, out_features=1472, bias=False)
          )
          (layer_norm): T5LayerNorm()
          (dropout): Dropout(p=0.1, inplace=False)
        )
        (1): T5LayerFF(
          (DenseReluDense): T5DenseGatedGeluDense(
            (wi_0): Linear(in_features=1472, out_features=3584, bias=False)
            (wi_1): Linear(in_features=1472, out_features=3584, bias=False)
            (wo): Linear(in_features=3584, out_features=1472, bias=False)
            (dropout): Dropout(p=0.1, inplace=False)
          )
          (layer_norm): T5LayerNorm()
          (dropout): Dropout(p=0.1, inplace=False)
        )
      )
    )
    (4): T5Block(
      (layer): ModuleList(
        (0): T5LayerSelfAttention(
          (SelfAttention): T5Attention(
            (q): Linear(in_features=1472, out_features=384, bias=False)
            (k): Linear(in_features=1472, out_features=384, bias=False)
            (v): Linear(in_features=1472, out_features=384, bias=False)
            (o): Linear(in_features=384, out_features=1472, bias=False)
          )
          (layer_norm): T5LayerNorm()
          (dropout): Dropout(p=0.1, inplace=False)
        )
        (1): T5LayerFF(
          (DenseReluDense): T5DenseGatedGeluDense(
            (wi_0): Linear(in_features=1472, out_features=3584, bias=False)
            (wi_1): Linear(in_features=1472, out_features=3584, bias=False)
            (wo): Linear(in_features=3584, out_features=1472, bias=False)
            (dropout): Dropout(p=0.1, inplace=False)
          )
          (layer_norm): T5LayerNorm()
          (dropout): Dropout(p=0.1, inplace=False)
        )
      )
    )
    (5): T5Block(
      (layer): ModuleList(
        (0): T5LayerSelfAttention(
          (SelfAttention): T5Attention(
            (q): Linear(in_features=1472, out_features=384, bias=False)
            (k): Linear(in_features=1472, out_features=384, bias=False)
            (v): Linear(in_features=1472, out_features=384, bias=False)
            (o): Linear(in_features=384, out_features=1472, bias=False)
          )
          (layer_norm): T5LayerNorm()
          (dropout): Dropout(p=0.1, inplace=False)
        )
        (1): T5LayerFF(
          (DenseReluDense): T5DenseGatedGeluDense(
            (wi_0): Linear(in_features=1472, out_features=3584, bias=False)
            (wi_1): Linear(in_features=1472, out_features=3584, bias=False)
            (wo): Linear(in_features=3584, out_features=1472, bias=False)
            (dropout): Dropout(p=0.1, inplace=False)
          )
          (layer_norm): T5LayerNorm()
          (dropout): Dropout(p=0.1, inplace=False)
        )
      )
    )
    (6): T5Block(
      (layer): ModuleList(
        (0): T5LayerSelfAttention(
          (SelfAttention): T5Attention(
            (q): Linear(in_features=1472, out_features=384, bias=False)
            (k): Linear(in_features=1472, out_features=384, bias=False)
            (v): Linear(in_features=1472, out_features=384, bias=False)
            (o): Linear(in_features=384, out_features=1472, bias=False)
          )
          (layer_norm): T5LayerNorm()
          (dropout): Dropout(p=0.1, inplace=False)
        )
        (1): T5LayerFF(
          (DenseReluDense): T5DenseGatedGeluDense(
            (wi_0): Linear(in_features=1472, out_features=3584, bias=False)
            (wi_1): Linear(in_features=1472, out_features=3584, bias=False)
            (wo): Linear(in_features=3584, out_features=1472, bias=False)
            (dropout): Dropout(p=0.1, inplace=False)
          )
          (layer_norm): T5LayerNorm()
          (dropout): Dropout(p=0.1, inplace=False)
        )
      )
    )
    (7): T5Block(
      (layer): ModuleList(
        (0): T5LayerSelfAttention(
          (SelfAttention): T5Attention(
            (q): Linear(in_features=1472, out_features=384, bias=False)
            (k): Linear(in_features=1472, out_features=384, bias=False)
            (v): Linear(in_features=1472, out_features=384, bias=False)
            (o): Linear(in_features=384, out_features=1472, bias=False)
          )
          (layer_norm): T5LayerNorm()
          (dropout): Dropout(p=0.1, inplace=False)
        )
        (1): T5LayerFF(
          (DenseReluDense): T5DenseGatedGeluDense(
            (wi_0): Linear(in_features=1472, out_features=3584, bias=False)
            (wi_1): Linear(in_features=1472, out_features=3584, bias=False)
            (wo): Linear(in_features=3584, out_features=1472, bias=False)
            (dropout): Dropout(p=0.1, inplace=False)
          )
          (layer_norm): T5LayerNorm()
          (dropout): Dropout(p=0.1, inplace=False)
        )
      )
    )
    (8): T5Block(
      (layer): ModuleList(
        (0): T5LayerSelfAttention(
          (SelfAttention): T5Attention(
            (q): Linear(in_features=1472, out_features=384, bias=False)
            (k): Linear(in_features=1472, out_features=384, bias=False)
            (v): Linear(in_features=1472, out_features=384, bias=False)
            (o): Linear(in_features=384, out_features=1472, bias=False)
          )
          (layer_norm): T5LayerNorm()
          (dropout): Dropout(p=0.1, inplace=False)
        )
        (1): T5LayerFF(
          (DenseReluDense): T5DenseGatedGeluDense(
            (wi_0): Linear(in_features=1472, out_features=3584, bias=False)
            (wi_1): Linear(in_features=1472, out_features=3584, bias=False)
            (wo): Linear(in_features=3584, out_features=1472, bias=False)
            (dropout): Dropout(p=0.1, inplace=False)
          )
          (layer_norm): T5LayerNorm()
          (dropout): Dropout(p=0.1, inplace=False)
        )
      )
    )
    (9): T5Block(
      (layer): ModuleList(
        (0): T5LayerSelfAttention(
          (SelfAttention): T5Attention(
            (q): Linear(in_features=1472, out_features=384, bias=False)
            (k): Linear(in_features=1472, out_features=384, bias=False)
            (v): Linear(in_features=1472, out_features=384, bias=False)
            (o): Linear(in_features=384, out_features=1472, bias=False)
          )
          (layer_norm): T5LayerNorm()
          (dropout): Dropout(p=0.1, inplace=False)
        )
        (1): T5LayerFF(
          (DenseReluDense): T5DenseGatedGeluDense(
            (wi_0): Linear(in_features=1472, out_features=3584, bias=False)
            (wi_1): Linear(in_features=1472, out_features=3584, bias=False)
            (wo): Linear(in_features=3584, out_features=1472, bias=False)
            (dropout): Dropout(p=0.1, inplace=False)
          )
          (layer_norm): T5LayerNorm()
          (dropout): Dropout(p=0.1, inplace=False)
        )
      )
    )
    (10): T5Block(
      (layer): ModuleList(
        (0): T5LayerSelfAttention(
          (SelfAttention): T5Attention(
            (q): Linear(in_features=1472, out_features=384, bias=False)
            (k): Linear(in_features=1472, out_features=384, bias=False)
            (v): Linear(in_features=1472, out_features=384, bias=False)
            (o): Linear(in_features=384, out_features=1472, bias=False)
          )
          (layer_norm): T5LayerNorm()
          (dropout): Dropout(p=0.1, inplace=False)
        )
        (1): T5LayerFF(
          (DenseReluDense): T5DenseGatedGeluDense(
            (wi_0): Linear(in_features=1472, out_features=3584, bias=False)
            (wi_1): Linear(in_features=1472, out_features=3584, bias=False)
            (wo): Linear(in_features=3584, out_features=1472, bias=False)
            (dropout): Dropout(p=0.1, inplace=False)
          )
          (layer_norm): T5LayerNorm()
          (dropout): Dropout(p=0.1, inplace=False)
        )
      )
    )
    (11): T5Block(
      (layer): ModuleList(
        (0): T5LayerSelfAttention(
          (SelfAttention): T5Attention(
            (q): Linear(in_features=1472, out_features=384, bias=False)
            (k): Linear(in_features=1472, out_features=384, bias=False)
            (v): Linear(in_features=1472, out_features=384, bias=False)
            (o): Linear(in_features=384, out_features=1472, bias=False)
          )
          (layer_norm): T5LayerNorm()
          (dropout): Dropout(p=0.1, inplace=False)
        )
        (1): T5LayerFF(
          (DenseReluDense): T5DenseGatedGeluDense(
            (wi_0): Linear(in_features=1472, out_features=3584, bias=False)
            (wi_1): Linear(in_features=1472, out_features=3584, bias=False)
            (wo): Linear(in_features=3584, out_features=1472, bias=False)
            (dropout): Dropout(p=0.1, inplace=False)
          )
          (layer_norm): T5LayerNorm()
          (dropout): Dropout(p=0.1, inplace=False)
        )
      )
    )
  )
  (final_layer_norm): T5LayerNorm()
  (dropout): Dropout(p=0.1, inplace=False)
)
ModuleList(
  (0): T5Block(
    (layer): ModuleList(
      (0): T5LayerSelfAttention(
        (SelfAttention): T5Attention(
          (q): Linear(in_features=1472, out_features=384, bias=False)
          (k): Linear(in_features=1472, out_features=384, bias=False)
          (v): Linear(in_features=1472, out_features=384, bias=False)
          (o): Linear(in_features=384, out_features=1472, bias=False)
          (relative_attention_bias): Embedding(32, 6)
        )
        (layer_norm): T5LayerNorm()
        (dropout): Dropout(p=0.1, inplace=False)
      )
      (1): T5LayerFF(
        (DenseReluDense): T5DenseGatedGeluDense(
          (wi_0): Linear(in_features=1472, out_features=3584, bias=False)
          (wi_1): Linear(in_features=1472, out_features=3584, bias=False)
          (wo): Linear(in_features=3584, out_features=1472, bias=False)
          (dropout): Dropout(p=0.1, inplace=False)
        )
        (layer_norm): T5LayerNorm()
        (dropout): Dropout(p=0.1, inplace=False)
      )
    )
  )
  (1): T5Block(
    (layer): ModuleList(
      (0): T5LayerSelfAttention(
        (SelfAttention): T5Attention(
          (q): Linear(in_features=1472, out_features=384, bias=False)
          (k): Linear(in_features=1472, out_features=384, bias=False)
          (v): Linear(in_features=1472, out_features=384, bias=False)
          (o): Linear(in_features=384, out_features=1472, bias=False)
        )
        (layer_norm): T5LayerNorm()
        (dropout): Dropout(p=0.1, inplace=False)
      )
      (1): T5LayerFF(
        (DenseReluDense): T5DenseGatedGeluDense(
          (wi_0): Linear(in_features=1472, out_features=3584, bias=False)
          (wi_1): Linear(in_features=1472, out_features=3584, bias=False)
          (wo): Linear(in_features=3584, out_features=1472, bias=False)
          (dropout): Dropout(p=0.1, inplace=False)
        )
        (layer_norm): T5LayerNorm()
        (dropout): Dropout(p=0.1, inplace=False)
      )
    )
  )
  (2): T5Block(
    (layer): ModuleList(
      (0): T5LayerSelfAttention(
        (SelfAttention): T5Attention(
          (q): Linear(in_features=1472, out_features=384, bias=False)
          (k): Linear(in_features=1472, out_features=384, bias=False)
          (v): Linear(in_features=1472, out_features=384, bias=False)
          (o): Linear(in_features=384, out_features=1472, bias=False)
        )
        (layer_norm): T5LayerNorm()
        (dropout): Dropout(p=0.1, inplace=False)
      )
      (1): T5LayerFF(
        (DenseReluDense): T5DenseGatedGeluDense(
          (wi_0): Linear(in_features=1472, out_features=3584, bias=False)
          (wi_1): Linear(in_features=1472, out_features=3584, bias=False)
          (wo): Linear(in_features=3584, out_features=1472, bias=False)
          (dropout): Dropout(p=0.1, inplace=False)
        )
        (layer_norm): T5LayerNorm()
        (dropout): Dropout(p=0.1, inplace=False)
      )
    )
  )
  (3): T5Block(
    (layer): ModuleList(
      (0): T5LayerSelfAttention(
        (SelfAttention): T5Attention(
          (q): Linear(in_features=1472, out_features=384, bias=False)
          (k): Linear(in_features=1472, out_features=384, bias=False)
          (v): Linear(in_features=1472, out_features=384, bias=False)
          (o): Linear(in_features=384, out_features=1472, bias=False)
        )
        (layer_norm): T5LayerNorm()
        (dropout): Dropout(p=0.1, inplace=False)
      )
      (1): T5LayerFF(
        (DenseReluDense): T5DenseGatedGeluDense(
          (wi_0): Linear(in_features=1472, out_features=3584, bias=False)
          (wi_1): Linear(in_features=1472, out_features=3584, bias=False)
          (wo): Linear(in_features=3584, out_features=1472, bias=False)
          (dropout): Dropout(p=0.1, inplace=False)
        )
        (layer_norm): T5LayerNorm()
        (dropout): Dropout(p=0.1, inplace=False)
      )
    )
  )
  (4): T5Block(
    (layer): ModuleList(
      (0): T5LayerSelfAttention(
        (SelfAttention): T5Attention(
          (q): Linear(in_features=1472, out_features=384, bias=False)
          (k): Linear(in_features=1472, out_features=384, bias=False)
          (v): Linear(in_features=1472, out_features=384, bias=False)
          (o): Linear(in_features=384, out_features=1472, bias=False)
        )
        (layer_norm): T5LayerNorm()
        (dropout): Dropout(p=0.1, inplace=False)
      )
      (1): T5LayerFF(
        (DenseReluDense): T5DenseGatedGeluDense(
          (wi_0): Linear(in_features=1472, out_features=3584, bias=False)
          (wi_1): Linear(in_features=1472, out_features=3584, bias=False)
          (wo): Linear(in_features=3584, out_features=1472, bias=False)
          (dropout): Dropout(p=0.1, inplace=False)
        )
        (layer_norm): T5LayerNorm()
        (dropout): Dropout(p=0.1, inplace=False)
      )
    )
  )
  (5): T5Block(
    (layer): ModuleList(
      (0): T5LayerSelfAttention(
        (SelfAttention): T5Attention(
          (q): Linear(in_features=1472, out_features=384, bias=False)
          (k): Linear(in_features=1472, out_features=384, bias=False)
          (v): Linear(in_features=1472, out_features=384, bias=False)
          (o): Linear(in_features=384, out_features=1472, bias=False)
        )
        (layer_norm): T5LayerNorm()
        (dropout): Dropout(p=0.1, inplace=False)
      )
      (1): T5LayerFF(
        (DenseReluDense): T5DenseGatedGeluDense(
          (wi_0): Linear(in_features=1472, out_features=3584, bias=False)
          (wi_1): Linear(in_features=1472, out_features=3584, bias=False)
          (wo): Linear(in_features=3584, out_features=1472, bias=False)
          (dropout): Dropout(p=0.1, inplace=False)
        )
        (layer_norm): T5LayerNorm()
        (dropout): Dropout(p=0.1, inplace=False)
      )
    )
  )
  (6): T5Block(
    (layer): ModuleList(
      (0): T5LayerSelfAttention(
        (SelfAttention): T5Attention(
          (q): Linear(in_features=1472, out_features=384, bias=False)
          (k): Linear(in_features=1472, out_features=384, bias=False)
          (v): Linear(in_features=1472, out_features=384, bias=False)
          (o): Linear(in_features=384, out_features=1472, bias=False)
        )
        (layer_norm): T5LayerNorm()
        (dropout): Dropout(p=0.1, inplace=False)
      )
      (1): T5LayerFF(
        (DenseReluDense): T5DenseGatedGeluDense(
          (wi_0): Linear(in_features=1472, out_features=3584, bias=False)
          (wi_1): Linear(in_features=1472, out_features=3584, bias=False)
          (wo): Linear(in_features=3584, out_features=1472, bias=False)
          (dropout): Dropout(p=0.1, inplace=False)
        )
        (layer_norm): T5LayerNorm()
        (dropout): Dropout(p=0.1, inplace=False)
      )
    )
  )
  (7): T5Block(
    (layer): ModuleList(
      (0): T5LayerSelfAttention(
        (SelfAttention): T5Attention(
          (q): Linear(in_features=1472, out_features=384, bias=False)
          (k): Linear(in_features=1472, out_features=384, bias=False)
          (v): Linear(in_features=1472, out_features=384, bias=False)
          (o): Linear(in_features=384, out_features=1472, bias=False)
        )
        (layer_norm): T5LayerNorm()
        (dropout): Dropout(p=0.1, inplace=False)
      )
      (1): T5LayerFF(
        (DenseReluDense): T5DenseGatedGeluDense(
          (wi_0): Linear(in_features=1472, out_features=3584, bias=False)
          (wi_1): Linear(in_features=1472, out_features=3584, bias=False)
          (wo): Linear(in_features=3584, out_features=1472, bias=False)
          (dropout): Dropout(p=0.1, inplace=False)
        )
        (layer_norm): T5LayerNorm()
        (dropout): Dropout(p=0.1, inplace=False)
      )
    )
  )
  (8): T5Block(
    (layer): ModuleList(
      (0): T5LayerSelfAttention(
        (SelfAttention): T5Attention(
          (q): Linear(in_features=1472, out_features=384, bias=False)
          (k): Linear(in_features=1472, out_features=384, bias=False)
          (v): Linear(in_features=1472, out_features=384, bias=False)
          (o): Linear(in_features=384, out_features=1472, bias=False)
        )
        (layer_norm): T5LayerNorm()
        (dropout): Dropout(p=0.1, inplace=False)
      )
      (1): T5LayerFF(
        (DenseReluDense): T5DenseGatedGeluDense(
          (wi_0): Linear(in_features=1472, out_features=3584, bias=False)
          (wi_1): Linear(in_features=1472, out_features=3584, bias=False)
          (wo): Linear(in_features=3584, out_features=1472, bias=False)
          (dropout): Dropout(p=0.1, inplace=False)
        )
        (layer_norm): T5LayerNorm()
        (dropout): Dropout(p=0.1, inplace=False)
      )
    )
  )
  (9): T5Block(
    (layer): ModuleList(
      (0): T5LayerSelfAttention(
        (SelfAttention): T5Attention(
          (q): Linear(in_features=1472, out_features=384, bias=False)
          (k): Linear(in_features=1472, out_features=384, bias=False)
          (v): Linear(in_features=1472, out_features=384, bias=False)
          (o): Linear(in_features=384, out_features=1472, bias=False)
        )
        (layer_norm): T5LayerNorm()
        (dropout): Dropout(p=0.1, inplace=False)
      )
      (1): T5LayerFF(
        (DenseReluDense): T5DenseGatedGeluDense(
          (wi_0): Linear(in_features=1472, out_features=3584, bias=False)
          (wi_1): Linear(in_features=1472, out_features=3584, bias=False)
          (wo): Linear(in_features=3584, out_features=1472, bias=False)
          (dropout): Dropout(p=0.1, inplace=False)
        )
        (layer_norm): T5LayerNorm()
        (dropout): Dropout(p=0.1, inplace=False)
      )
    )
  )
  (10): T5Block(
    (layer): ModuleList(
      (0): T5LayerSelfAttention(
        (SelfAttention): T5Attention(
          (q): Linear(in_features=1472, out_features=384, bias=False)
          (k): Linear(in_features=1472, out_features=384, bias=False)
          (v): Linear(in_features=1472, out_features=384, bias=False)
          (o): Linear(in_features=384, out_features=1472, bias=False)
        )
        (layer_norm): T5LayerNorm()
        (dropout): Dropout(p=0.1, inplace=False)
      )
      (1): T5LayerFF(
        (DenseReluDense): T5DenseGatedGeluDense(
          (wi_0): Linear(in_features=1472, out_features=3584, bias=False)
          (wi_1): Linear(in_features=1472, out_features=3584, bias=False)
          (wo): Linear(in_features=3584, out_features=1472, bias=False)
          (dropout): Dropout(p=0.1, inplace=False)
        )
        (layer_norm): T5LayerNorm()
        (dropout): Dropout(p=0.1, inplace=False)
      )
    )
  )
  (11): T5Block(
    (layer): ModuleList(
      (0): T5LayerSelfAttention(
        (SelfAttention): T5Attention(
          (q): Linear(in_features=1472, out_features=384, bias=False)
          (k): Linear(in_features=1472, out_features=384, bias=False)
          (v): Linear(in_features=1472, out_features=384, bias=False)
          (o): Linear(in_features=384, out_features=1472, bias=False)
        )
        (layer_norm): T5LayerNorm()
        (dropout): Dropout(p=0.1, inplace=False)
      )
      (1): T5LayerFF(
        (DenseReluDense): T5DenseGatedGeluDense(
          (wi_0): Linear(in_features=1472, out_features=3584, bias=False)
          (wi_1): Linear(in_features=1472, out_features=3584, bias=False)
          (wo): Linear(in_features=3584, out_features=1472, bias=False)
          (dropout): Dropout(p=0.1, inplace=False)
        )
        (layer_norm): T5LayerNorm()
        (dropout): Dropout(p=0.1, inplace=False)
      )
    )
  )
)
T5Block(
  (layer): ModuleList(
    (0): T5LayerSelfAttention(
      (SelfAttention): T5Attention(
        (q): Linear(in_features=1472, out_features=384, bias=False)
        (k): Linear(in_features=1472, out_features=384, bias=False)
        (v): Linear(in_features=1472, out_features=384, bias=False)
        (o): Linear(in_features=384, out_features=1472, bias=False)
        (relative_attention_bias): Embedding(32, 6)
      )
      (layer_norm): T5LayerNorm()
      (dropout): Dropout(p=0.1, inplace=False)
    )
    (1): T5LayerFF(
      (DenseReluDense): T5DenseGatedGeluDense(
        (wi_0): Linear(in_features=1472, out_features=3584, bias=False)
        (wi_1): Linear(in_features=1472, out_features=3584, bias=False)
        (wo): Linear(in_features=3584, out_features=1472, bias=False)
        (dropout): Dropout(p=0.1, inplace=False)
      )
      (layer_norm): T5LayerNorm()
      (dropout): Dropout(p=0.1, inplace=False)
    )
  )
)
ModuleList(
  (0): T5LayerSelfAttention(
    (SelfAttention): T5Attention(
      (q): Linear(in_features=1472, out_features=384, bias=False)
      (k): Linear(in_features=1472, out_features=384, bias=False)
      (v): Linear(in_features=1472, out_features=384, bias=False)
      (o): Linear(in_features=384, out_features=1472, bias=False)
      (relative_attention_bias): Embedding(32, 6)
    )
    (layer_norm): T5LayerNorm()
    (dropout): Dropout(p=0.1, inplace=False)
  )
  (1): T5LayerFF(
    (DenseReluDense): T5DenseGatedGeluDense(
      (wi_0): Linear(in_features=1472, out_features=3584, bias=False)
      (wi_1): Linear(in_features=1472, out_features=3584, bias=False)
      (wo): Linear(in_features=3584, out_features=1472, bias=False)
      (dropout): Dropout(p=0.1, inplace=False)
    )
    (layer_norm): T5LayerNorm()
    (dropout): Dropout(p=0.1, inplace=False)
  )
)
T5LayerSelfAttention(
  (SelfAttention): T5Attention(
    (q): Linear(in_features=1472, out_features=384, bias=False)
    (k): Linear(in_features=1472, out_features=384, bias=False)
    (v): Linear(in_features=1472, out_features=384, bias=False)
    (o): Linear(in_features=384, out_features=1472, bias=False)
    (relative_attention_bias): Embedding(32, 6)
  )
  (layer_norm): T5LayerNorm()
  (dropout): Dropout(p=0.1, inplace=False)
)
T5Attention(
  (q): Linear(in_features=1472, out_features=384, bias=False)
  (k): Linear(in_features=1472, out_features=384, bias=False)
  (v): Linear(in_features=1472, out_features=384, bias=False)
  (o): Linear(in_features=384, out_features=1472, bias=False)
  (relative_attention_bias): Embedding(32, 6)
)
Linear(in_features=1472, out_features=384, bias=False)
Linear(in_features=1472, out_features=384, bias=False)
Linear(in_features=1472, out_features=384, bias=False)
Linear(in_features=384, out_features=1472, bias=False)
Embedding(32, 6)
T5LayerNorm()
Dropout(p=0.1, inplace=False)
T5LayerFF(
  (DenseReluDense): T5DenseGatedGeluDense(
    (wi_0): Linear(in_features=1472, out_features=3584, bias=False)
    (wi_1): Linear(in_features=1472, out_features=3584, bias=False)
    (wo): Linear(in_features=3584, out_features=1472, bias=False)
    (dropout): Dropout(p=0.1, inplace=False)
  )
  (layer_norm): T5LayerNorm()
  (dropout): Dropout(p=0.1, inplace=False)
)
T5DenseGatedGeluDense(
  (wi_0): Linear(in_features=1472, out_features=3584, bias=False)
  (wi_1): Linear(in_features=1472, out_features=3584, bias=False)
  (wo): Linear(in_features=3584, out_features=1472, bias=False)
  (dropout): Dropout(p=0.1, inplace=False)
)
Linear(in_features=1472, out_features=3584, bias=False)
Linear(in_features=1472, out_features=3584, bias=False)
Linear(in_features=3584, out_features=1472, bias=False)
Dropout(p=0.1, inplace=False)
T5LayerNorm()
Dropout(p=0.1, inplace=False)
T5Block(
  (layer): ModuleList(
    (0): T5LayerSelfAttention(
      (SelfAttention): T5Attention(
        (q): Linear(in_features=1472, out_features=384, bias=False)
        (k): Linear(in_features=1472, out_features=384, bias=False)
        (v): Linear(in_features=1472, out_features=384, bias=False)
        (o): Linear(in_features=384, out_features=1472, bias=False)
      )
      (layer_norm): T5LayerNorm()
      (dropout): Dropout(p=0.1, inplace=False)
    )
    (1): T5LayerFF(
      (DenseReluDense): T5DenseGatedGeluDense(
        (wi_0): Linear(in_features=1472, out_features=3584, bias=False)
        (wi_1): Linear(in_features=1472, out_features=3584, bias=False)
        (wo): Linear(in_features=3584, out_features=1472, bias=False)
        (dropout): Dropout(p=0.1, inplace=False)
      )
      (layer_norm): T5LayerNorm()
      (dropout): Dropout(p=0.1, inplace=False)
    )
  )
)
ModuleList(
  (0): T5LayerSelfAttention(
    (SelfAttention): T5Attention(
      (q): Linear(in_features=1472, out_features=384, bias=False)
      (k): Linear(in_features=1472, out_features=384, bias=False)
      (v): Linear(in_features=1472, out_features=384, bias=False)
      (o): Linear(in_features=384, out_features=1472, bias=False)
    )
    (layer_norm): T5LayerNorm()
    (dropout): Dropout(p=0.1, inplace=False)
  )
  (1): T5LayerFF(
    (DenseReluDense): T5DenseGatedGeluDense(
      (wi_0): Linear(in_features=1472, out_features=3584, bias=False)
      (wi_1): Linear(in_features=1472, out_features=3584, bias=False)
      (wo): Linear(in_features=3584, out_features=1472, bias=False)
      (dropout): Dropout(p=0.1, inplace=False)
    )
    (layer_norm): T5LayerNorm()
    (dropout): Dropout(p=0.1, inplace=False)
  )
)
T5LayerSelfAttention(
  (SelfAttention): T5Attention(
    (q): Linear(in_features=1472, out_features=384, bias=False)
    (k): Linear(in_features=1472, out_features=384, bias=False)
    (v): Linear(in_features=1472, out_features=384, bias=False)
    (o): Linear(in_features=384, out_features=1472, bias=False)
  )
  (layer_norm): T5LayerNorm()
  (dropout): Dropout(p=0.1, inplace=False)
)
T5Attention(
  (q): Linear(in_features=1472, out_features=384, bias=False)
  (k): Linear(in_features=1472, out_features=384, bias=False)
  (v): Linear(in_features=1472, out_features=384, bias=False)
  (o): Linear(in_features=384, out_features=1472, bias=False)
)
Linear(in_features=1472, out_features=384, bias=False)
Linear(in_features=1472, out_features=384, bias=False)
Linear(in_features=1472, out_features=384, bias=False)
Linear(in_features=384, out_features=1472, bias=False)
T5LayerNorm()
Dropout(p=0.1, inplace=False)
T5LayerFF(
  (DenseReluDense): T5DenseGatedGeluDense(
    (wi_0): Linear(in_features=1472, out_features=3584, bias=False)
    (wi_1): Linear(in_features=1472, out_features=3584, bias=False)
    (wo): Linear(in_features=3584, out_features=1472, bias=False)
    (dropout): Dropout(p=0.1, inplace=False)
  )
  (layer_norm): T5LayerNorm()
  (dropout): Dropout(p=0.1, inplace=False)
)
T5DenseGatedGeluDense(
  (wi_0): Linear(in_features=1472, out_features=3584, bias=False)
  (wi_1): Linear(in_features=1472, out_features=3584, bias=False)
  (wo): Linear(in_features=3584, out_features=1472, bias=False)
  (dropout): Dropout(p=0.1, inplace=False)
)
Linear(in_features=1472, out_features=3584, bias=False)
Linear(in_features=1472, out_features=3584, bias=False)
Linear(in_features=3584, out_features=1472, bias=False)
Dropout(p=0.1, inplace=False)
T5LayerNorm()
Dropout(p=0.1, inplace=False)
T5Block(
  (layer): ModuleList(
    (0): T5LayerSelfAttention(
      (SelfAttention): T5Attention(
        (q): Linear(in_features=1472, out_features=384, bias=False)
        (k): Linear(in_features=1472, out_features=384, bias=False)
        (v): Linear(in_features=1472, out_features=384, bias=False)
        (o): Linear(in_features=384, out_features=1472, bias=False)
      )
      (layer_norm): T5LayerNorm()
      (dropout): Dropout(p=0.1, inplace=False)
    )
    (1): T5LayerFF(
      (DenseReluDense): T5DenseGatedGeluDense(
        (wi_0): Linear(in_features=1472, out_features=3584, bias=False)
        (wi_1): Linear(in_features=1472, out_features=3584, bias=False)
        (wo): Linear(in_features=3584, out_features=1472, bias=False)
        (dropout): Dropout(p=0.1, inplace=False)
      )
      (layer_norm): T5LayerNorm()
      (dropout): Dropout(p=0.1, inplace=False)
    )
  )
)
ModuleList(
  (0): T5LayerSelfAttention(
    (SelfAttention): T5Attention(
      (q): Linear(in_features=1472, out_features=384, bias=False)
      (k): Linear(in_features=1472, out_features=384, bias=False)
      (v): Linear(in_features=1472, out_features=384, bias=False)
      (o): Linear(in_features=384, out_features=1472, bias=False)
    )
    (layer_norm): T5LayerNorm()
    (dropout): Dropout(p=0.1, inplace=False)
  )
  (1): T5LayerFF(
    (DenseReluDense): T5DenseGatedGeluDense(
      (wi_0): Linear(in_features=1472, out_features=3584, bias=False)
      (wi_1): Linear(in_features=1472, out_features=3584, bias=False)
      (wo): Linear(in_features=3584, out_features=1472, bias=False)
      (dropout): Dropout(p=0.1, inplace=False)
    )
    (layer_norm): T5LayerNorm()
    (dropout): Dropout(p=0.1, inplace=False)
  )
)
T5LayerSelfAttention(
  (SelfAttention): T5Attention(
    (q): Linear(in_features=1472, out_features=384, bias=False)
    (k): Linear(in_features=1472, out_features=384, bias=False)
    (v): Linear(in_features=1472, out_features=384, bias=False)
    (o): Linear(in_features=384, out_features=1472, bias=False)
  )
  (layer_norm): T5LayerNorm()
  (dropout): Dropout(p=0.1, inplace=False)
)
T5Attention(
  (q): Linear(in_features=1472, out_features=384, bias=False)
  (k): Linear(in_features=1472, out_features=384, bias=False)
  (v): Linear(in_features=1472, out_features=384, bias=False)
  (o): Linear(in_features=384, out_features=1472, bias=False)
)
Linear(in_features=1472, out_features=384, bias=False)
Linear(in_features=1472, out_features=384, bias=False)
Linear(in_features=1472, out_features=384, bias=False)
Linear(in_features=384, out_features=1472, bias=False)
T5LayerNorm()
Dropout(p=0.1, inplace=False)
T5LayerFF(
  (DenseReluDense): T5DenseGatedGeluDense(
    (wi_0): Linear(in_features=1472, out_features=3584, bias=False)
    (wi_1): Linear(in_features=1472, out_features=3584, bias=False)
    (wo): Linear(in_features=3584, out_features=1472, bias=False)
    (dropout): Dropout(p=0.1, inplace=False)
  )
  (layer_norm): T5LayerNorm()
  (dropout): Dropout(p=0.1, inplace=False)
)
T5DenseGatedGeluDense(
  (wi_0): Linear(in_features=1472, out_features=3584, bias=False)
  (wi_1): Linear(in_features=1472, out_features=3584, bias=False)
  (wo): Linear(in_features=3584, out_features=1472, bias=False)
  (dropout): Dropout(p=0.1, inplace=False)
)
Linear(in_features=1472, out_features=3584, bias=False)
Linear(in_features=1472, out_features=3584, bias=False)
Linear(in_features=3584, out_features=1472, bias=False)
Dropout(p=0.1, inplace=False)
T5LayerNorm()
Dropout(p=0.1, inplace=False)
T5Block(
  (layer): ModuleList(
    (0): T5LayerSelfAttention(
      (SelfAttention): T5Attention(
        (q): Linear(in_features=1472, out_features=384, bias=False)
        (k): Linear(in_features=1472, out_features=384, bias=False)
        (v): Linear(in_features=1472, out_features=384, bias=False)
        (o): Linear(in_features=384, out_features=1472, bias=False)
      )
      (layer_norm): T5LayerNorm()
      (dropout): Dropout(p=0.1, inplace=False)
    )
    (1): T5LayerFF(
      (DenseReluDense): T5DenseGatedGeluDense(
        (wi_0): Linear(in_features=1472, out_features=3584, bias=False)
        (wi_1): Linear(in_features=1472, out_features=3584, bias=False)
        (wo): Linear(in_features=3584, out_features=1472, bias=False)
        (dropout): Dropout(p=0.1, inplace=False)
      )
      (layer_norm): T5LayerNorm()
      (dropout): Dropout(p=0.1, inplace=False)
    )
  )
)
ModuleList(
  (0): T5LayerSelfAttention(
    (SelfAttention): T5Attention(
      (q): Linear(in_features=1472, out_features=384, bias=False)
      (k): Linear(in_features=1472, out_features=384, bias=False)
      (v): Linear(in_features=1472, out_features=384, bias=False)
      (o): Linear(in_features=384, out_features=1472, bias=False)
    )
    (layer_norm): T5LayerNorm()
    (dropout): Dropout(p=0.1, inplace=False)
  )
  (1): T5LayerFF(
    (DenseReluDense): T5DenseGatedGeluDense(
      (wi_0): Linear(in_features=1472, out_features=3584, bias=False)
      (wi_1): Linear(in_features=1472, out_features=3584, bias=False)
      (wo): Linear(in_features=3584, out_features=1472, bias=False)
      (dropout): Dropout(p=0.1, inplace=False)
    )
    (layer_norm): T5LayerNorm()
    (dropout): Dropout(p=0.1, inplace=False)
  )
)
T5LayerSelfAttention(
  (SelfAttention): T5Attention(
    (q): Linear(in_features=1472, out_features=384, bias=False)
    (k): Linear(in_features=1472, out_features=384, bias=False)
    (v): Linear(in_features=1472, out_features=384, bias=False)
    (o): Linear(in_features=384, out_features=1472, bias=False)
  )
  (layer_norm): T5LayerNorm()
  (dropout): Dropout(p=0.1, inplace=False)
)
T5Attention(
  (q): Linear(in_features=1472, out_features=384, bias=False)
  (k): Linear(in_features=1472, out_features=384, bias=False)
  (v): Linear(in_features=1472, out_features=384, bias=False)
  (o): Linear(in_features=384, out_features=1472, bias=False)
)
Linear(in_features=1472, out_features=384, bias=False)
Linear(in_features=1472, out_features=384, bias=False)
Linear(in_features=1472, out_features=384, bias=False)
Linear(in_features=384, out_features=1472, bias=False)
T5LayerNorm()
Dropout(p=0.1, inplace=False)
T5LayerFF(
  (DenseReluDense): T5DenseGatedGeluDense(
    (wi_0): Linear(in_features=1472, out_features=3584, bias=False)
    (wi_1): Linear(in_features=1472, out_features=3584, bias=False)
    (wo): Linear(in_features=3584, out_features=1472, bias=False)
    (dropout): Dropout(p=0.1, inplace=False)
  )
  (layer_norm): T5LayerNorm()
  (dropout): Dropout(p=0.1, inplace=False)
)
T5DenseGatedGeluDense(
  (wi_0): Linear(in_features=1472, out_features=3584, bias=False)
  (wi_1): Linear(in_features=1472, out_features=3584, bias=False)
  (wo): Linear(in_features=3584, out_features=1472, bias=False)
  (dropout): Dropout(p=0.1, inplace=False)
)
Linear(in_features=1472, out_features=3584, bias=False)
Linear(in_features=1472, out_features=3584, bias=False)
Linear(in_features=3584, out_features=1472, bias=False)
Dropout(p=0.1, inplace=False)
T5LayerNorm()
Dropout(p=0.1, inplace=False)
T5Block(
  (layer): ModuleList(
    (0): T5LayerSelfAttention(
      (SelfAttention): T5Attention(
        (q): Linear(in_features=1472, out_features=384, bias=False)
        (k): Linear(in_features=1472, out_features=384, bias=False)
        (v): Linear(in_features=1472, out_features=384, bias=False)
        (o): Linear(in_features=384, out_features=1472, bias=False)
      )
      (layer_norm): T5LayerNorm()
      (dropout): Dropout(p=0.1, inplace=False)
    )
    (1): T5LayerFF(
      (DenseReluDense): T5DenseGatedGeluDense(
        (wi_0): Linear(in_features=1472, out_features=3584, bias=False)
        (wi_1): Linear(in_features=1472, out_features=3584, bias=False)
        (wo): Linear(in_features=3584, out_features=1472, bias=False)
        (dropout): Dropout(p=0.1, inplace=False)
      )
      (layer_norm): T5LayerNorm()
      (dropout): Dropout(p=0.1, inplace=False)
    )
  )
)
ModuleList(
  (0): T5LayerSelfAttention(
    (SelfAttention): T5Attention(
      (q): Linear(in_features=1472, out_features=384, bias=False)
      (k): Linear(in_features=1472, out_features=384, bias=False)
      (v): Linear(in_features=1472, out_features=384, bias=False)
      (o): Linear(in_features=384, out_features=1472, bias=False)
    )
    (layer_norm): T5LayerNorm()
    (dropout): Dropout(p=0.1, inplace=False)
  )
  (1): T5LayerFF(
    (DenseReluDense): T5DenseGatedGeluDense(
      (wi_0): Linear(in_features=1472, out_features=3584, bias=False)
      (wi_1): Linear(in_features=1472, out_features=3584, bias=False)
      (wo): Linear(in_features=3584, out_features=1472, bias=False)
      (dropout): Dropout(p=0.1, inplace=False)
    )
    (layer_norm): T5LayerNorm()
    (dropout): Dropout(p=0.1, inplace=False)
  )
)
T5LayerSelfAttention(
  (SelfAttention): T5Attention(
    (q): Linear(in_features=1472, out_features=384, bias=False)
    (k): Linear(in_features=1472, out_features=384, bias=False)
    (v): Linear(in_features=1472, out_features=384, bias=False)
    (o): Linear(in_features=384, out_features=1472, bias=False)
  )
  (layer_norm): T5LayerNorm()
  (dropout): Dropout(p=0.1, inplace=False)
)
T5Attention(
  (q): Linear(in_features=1472, out_features=384, bias=False)
  (k): Linear(in_features=1472, out_features=384, bias=False)
  (v): Linear(in_features=1472, out_features=384, bias=False)
  (o): Linear(in_features=384, out_features=1472, bias=False)
)
Linear(in_features=1472, out_features=384, bias=False)
Linear(in_features=1472, out_features=384, bias=False)
Linear(in_features=1472, out_features=384, bias=False)
Linear(in_features=384, out_features=1472, bias=False)
T5LayerNorm()
Dropout(p=0.1, inplace=False)
T5LayerFF(
  (DenseReluDense): T5DenseGatedGeluDense(
    (wi_0): Linear(in_features=1472, out_features=3584, bias=False)
    (wi_1): Linear(in_features=1472, out_features=3584, bias=False)
    (wo): Linear(in_features=3584, out_features=1472, bias=False)
    (dropout): Dropout(p=0.1, inplace=False)
  )
  (layer_norm): T5LayerNorm()
  (dropout): Dropout(p=0.1, inplace=False)
)
T5DenseGatedGeluDense(
  (wi_0): Linear(in_features=1472, out_features=3584, bias=False)
  (wi_1): Linear(in_features=1472, out_features=3584, bias=False)
  (wo): Linear(in_features=3584, out_features=1472, bias=False)
  (dropout): Dropout(p=0.1, inplace=False)
)
Linear(in_features=1472, out_features=3584, bias=False)
Linear(in_features=1472, out_features=3584, bias=False)
Linear(in_features=3584, out_features=1472, bias=False)
Dropout(p=0.1, inplace=False)
T5LayerNorm()
Dropout(p=0.1, inplace=False)
T5Block(
  (layer): ModuleList(
    (0): T5LayerSelfAttention(
      (SelfAttention): T5Attention(
        (q): Linear(in_features=1472, out_features=384, bias=False)
        (k): Linear(in_features=1472, out_features=384, bias=False)
        (v): Linear(in_features=1472, out_features=384, bias=False)
        (o): Linear(in_features=384, out_features=1472, bias=False)
      )
      (layer_norm): T5LayerNorm()
      (dropout): Dropout(p=0.1, inplace=False)
    )
    (1): T5LayerFF(
      (DenseReluDense): T5DenseGatedGeluDense(
        (wi_0): Linear(in_features=1472, out_features=3584, bias=False)
        (wi_1): Linear(in_features=1472, out_features=3584, bias=False)
        (wo): Linear(in_features=3584, out_features=1472, bias=False)
        (dropout): Dropout(p=0.1, inplace=False)
      )
      (layer_norm): T5LayerNorm()
      (dropout): Dropout(p=0.1, inplace=False)
    )
  )
)
ModuleList(
  (0): T5LayerSelfAttention(
    (SelfAttention): T5Attention(
      (q): Linear(in_features=1472, out_features=384, bias=False)
      (k): Linear(in_features=1472, out_features=384, bias=False)
      (v): Linear(in_features=1472, out_features=384, bias=False)
      (o): Linear(in_features=384, out_features=1472, bias=False)
    )
    (layer_norm): T5LayerNorm()
    (dropout): Dropout(p=0.1, inplace=False)
  )
  (1): T5LayerFF(
    (DenseReluDense): T5DenseGatedGeluDense(
      (wi_0): Linear(in_features=1472, out_features=3584, bias=False)
      (wi_1): Linear(in_features=1472, out_features=3584, bias=False)
      (wo): Linear(in_features=3584, out_features=1472, bias=False)
      (dropout): Dropout(p=0.1, inplace=False)
    )
    (layer_norm): T5LayerNorm()
    (dropout): Dropout(p=0.1, inplace=False)
  )
)
T5LayerSelfAttention(
  (SelfAttention): T5Attention(
    (q): Linear(in_features=1472, out_features=384, bias=False)
    (k): Linear(in_features=1472, out_features=384, bias=False)
    (v): Linear(in_features=1472, out_features=384, bias=False)
    (o): Linear(in_features=384, out_features=1472, bias=False)
  )
  (layer_norm): T5LayerNorm()
  (dropout): Dropout(p=0.1, inplace=False)
)
T5Attention(
  (q): Linear(in_features=1472, out_features=384, bias=False)
  (k): Linear(in_features=1472, out_features=384, bias=False)
  (v): Linear(in_features=1472, out_features=384, bias=False)
  (o): Linear(in_features=384, out_features=1472, bias=False)
)
Linear(in_features=1472, out_features=384, bias=False)
Linear(in_features=1472, out_features=384, bias=False)
Linear(in_features=1472, out_features=384, bias=False)
Linear(in_features=384, out_features=1472, bias=False)
T5LayerNorm()
Dropout(p=0.1, inplace=False)
T5LayerFF(
  (DenseReluDense): T5DenseGatedGeluDense(
    (wi_0): Linear(in_features=1472, out_features=3584, bias=False)
    (wi_1): Linear(in_features=1472, out_features=3584, bias=False)
    (wo): Linear(in_features=3584, out_features=1472, bias=False)
    (dropout): Dropout(p=0.1, inplace=False)
  )
  (layer_norm): T5LayerNorm()
  (dropout): Dropout(p=0.1, inplace=False)
)
T5DenseGatedGeluDense(
  (wi_0): Linear(in_features=1472, out_features=3584, bias=False)
  (wi_1): Linear(in_features=1472, out_features=3584, bias=False)
  (wo): Linear(in_features=3584, out_features=1472, bias=False)
  (dropout): Dropout(p=0.1, inplace=False)
)
Linear(in_features=1472, out_features=3584, bias=False)
Linear(in_features=1472, out_features=3584, bias=False)
Linear(in_features=3584, out_features=1472, bias=False)
Dropout(p=0.1, inplace=False)
T5LayerNorm()
Dropout(p=0.1, inplace=False)
T5Block(
  (layer): ModuleList(
    (0): T5LayerSelfAttention(
      (SelfAttention): T5Attention(
        (q): Linear(in_features=1472, out_features=384, bias=False)
        (k): Linear(in_features=1472, out_features=384, bias=False)
        (v): Linear(in_features=1472, out_features=384, bias=False)
        (o): Linear(in_features=384, out_features=1472, bias=False)
      )
      (layer_norm): T5LayerNorm()
      (dropout): Dropout(p=0.1, inplace=False)
    )
    (1): T5LayerFF(
      (DenseReluDense): T5DenseGatedGeluDense(
        (wi_0): Linear(in_features=1472, out_features=3584, bias=False)
        (wi_1): Linear(in_features=1472, out_features=3584, bias=False)
        (wo): Linear(in_features=3584, out_features=1472, bias=False)
        (dropout): Dropout(p=0.1, inplace=False)
      )
      (layer_norm): T5LayerNorm()
      (dropout): Dropout(p=0.1, inplace=False)
    )
  )
)
ModuleList(
  (0): T5LayerSelfAttention(
    (SelfAttention): T5Attention(
      (q): Linear(in_features=1472, out_features=384, bias=False)
      (k): Linear(in_features=1472, out_features=384, bias=False)
      (v): Linear(in_features=1472, out_features=384, bias=False)
      (o): Linear(in_features=384, out_features=1472, bias=False)
    )
    (layer_norm): T5LayerNorm()
    (dropout): Dropout(p=0.1, inplace=False)
  )
  (1): T5LayerFF(
    (DenseReluDense): T5DenseGatedGeluDense(
      (wi_0): Linear(in_features=1472, out_features=3584, bias=False)
      (wi_1): Linear(in_features=1472, out_features=3584, bias=False)
      (wo): Linear(in_features=3584, out_features=1472, bias=False)
      (dropout): Dropout(p=0.1, inplace=False)
    )
    (layer_norm): T5LayerNorm()
    (dropout): Dropout(p=0.1, inplace=False)
  )
)
T5LayerSelfAttention(
  (SelfAttention): T5Attention(
    (q): Linear(in_features=1472, out_features=384, bias=False)
    (k): Linear(in_features=1472, out_features=384, bias=False)
    (v): Linear(in_features=1472, out_features=384, bias=False)
    (o): Linear(in_features=384, out_features=1472, bias=False)
  )
  (layer_norm): T5LayerNorm()
  (dropout): Dropout(p=0.1, inplace=False)
)
T5Attention(
  (q): Linear(in_features=1472, out_features=384, bias=False)
  (k): Linear(in_features=1472, out_features=384, bias=False)
  (v): Linear(in_features=1472, out_features=384, bias=False)
  (o): Linear(in_features=384, out_features=1472, bias=False)
)
Linear(in_features=1472, out_features=384, bias=False)
Linear(in_features=1472, out_features=384, bias=False)
Linear(in_features=1472, out_features=384, bias=False)
Linear(in_features=384, out_features=1472, bias=False)
T5LayerNorm()
Dropout(p=0.1, inplace=False)
T5LayerFF(
  (DenseReluDense): T5DenseGatedGeluDense(
    (wi_0): Linear(in_features=1472, out_features=3584, bias=False)
    (wi_1): Linear(in_features=1472, out_features=3584, bias=False)
    (wo): Linear(in_features=3584, out_features=1472, bias=False)
    (dropout): Dropout(p=0.1, inplace=False)
  )
  (layer_norm): T5LayerNorm()
  (dropout): Dropout(p=0.1, inplace=False)
)
T5DenseGatedGeluDense(
  (wi_0): Linear(in_features=1472, out_features=3584, bias=False)
  (wi_1): Linear(in_features=1472, out_features=3584, bias=False)
  (wo): Linear(in_features=3584, out_features=1472, bias=False)
  (dropout): Dropout(p=0.1, inplace=False)
)
Linear(in_features=1472, out_features=3584, bias=False)
Linear(in_features=1472, out_features=3584, bias=False)
Linear(in_features=3584, out_features=1472, bias=False)
Dropout(p=0.1, inplace=False)
T5LayerNorm()
Dropout(p=0.1, inplace=False)
T5Block(
  (layer): ModuleList(
    (0): T5LayerSelfAttention(
      (SelfAttention): T5Attention(
        (q): Linear(in_features=1472, out_features=384, bias=False)
        (k): Linear(in_features=1472, out_features=384, bias=False)
        (v): Linear(in_features=1472, out_features=384, bias=False)
        (o): Linear(in_features=384, out_features=1472, bias=False)
      )
      (layer_norm): T5LayerNorm()
      (dropout): Dropout(p=0.1, inplace=False)
    )
    (1): T5LayerFF(
      (DenseReluDense): T5DenseGatedGeluDense(
        (wi_0): Linear(in_features=1472, out_features=3584, bias=False)
        (wi_1): Linear(in_features=1472, out_features=3584, bias=False)
        (wo): Linear(in_features=3584, out_features=1472, bias=False)
        (dropout): Dropout(p=0.1, inplace=False)
      )
      (layer_norm): T5LayerNorm()
      (dropout): Dropout(p=0.1, inplace=False)
    )
  )
)
ModuleList(
  (0): T5LayerSelfAttention(
    (SelfAttention): T5Attention(
      (q): Linear(in_features=1472, out_features=384, bias=False)
      (k): Linear(in_features=1472, out_features=384, bias=False)
      (v): Linear(in_features=1472, out_features=384, bias=False)
      (o): Linear(in_features=384, out_features=1472, bias=False)
    )
    (layer_norm): T5LayerNorm()
    (dropout): Dropout(p=0.1, inplace=False)
  )
  (1): T5LayerFF(
    (DenseReluDense): T5DenseGatedGeluDense(
      (wi_0): Linear(in_features=1472, out_features=3584, bias=False)
      (wi_1): Linear(in_features=1472, out_features=3584, bias=False)
      (wo): Linear(in_features=3584, out_features=1472, bias=False)
      (dropout): Dropout(p=0.1, inplace=False)
    )
    (layer_norm): T5LayerNorm()
    (dropout): Dropout(p=0.1, inplace=False)
  )
)
T5LayerSelfAttention(
  (SelfAttention): T5Attention(
    (q): Linear(in_features=1472, out_features=384, bias=False)
    (k): Linear(in_features=1472, out_features=384, bias=False)
    (v): Linear(in_features=1472, out_features=384, bias=False)
    (o): Linear(in_features=384, out_features=1472, bias=False)
  )
  (layer_norm): T5LayerNorm()
  (dropout): Dropout(p=0.1, inplace=False)
)
T5Attention(
  (q): Linear(in_features=1472, out_features=384, bias=False)
  (k): Linear(in_features=1472, out_features=384, bias=False)
  (v): Linear(in_features=1472, out_features=384, bias=False)
  (o): Linear(in_features=384, out_features=1472, bias=False)
)
Linear(in_features=1472, out_features=384, bias=False)
Linear(in_features=1472, out_features=384, bias=False)
Linear(in_features=1472, out_features=384, bias=False)
Linear(in_features=384, out_features=1472, bias=False)
T5LayerNorm()
Dropout(p=0.1, inplace=False)
T5LayerFF(
  (DenseReluDense): T5DenseGatedGeluDense(
    (wi_0): Linear(in_features=1472, out_features=3584, bias=False)
    (wi_1): Linear(in_features=1472, out_features=3584, bias=False)
    (wo): Linear(in_features=3584, out_features=1472, bias=False)
    (dropout): Dropout(p=0.1, inplace=False)
  )
  (layer_norm): T5LayerNorm()
  (dropout): Dropout(p=0.1, inplace=False)
)
T5DenseGatedGeluDense(
  (wi_0): Linear(in_features=1472, out_features=3584, bias=False)
  (wi_1): Linear(in_features=1472, out_features=3584, bias=False)
  (wo): Linear(in_features=3584, out_features=1472, bias=False)
  (dropout): Dropout(p=0.1, inplace=False)
)
Linear(in_features=1472, out_features=3584, bias=False)
Linear(in_features=1472, out_features=3584, bias=False)
Linear(in_features=3584, out_features=1472, bias=False)
Dropout(p=0.1, inplace=False)
T5LayerNorm()
Dropout(p=0.1, inplace=False)
T5Block(
  (layer): ModuleList(
    (0): T5LayerSelfAttention(
      (SelfAttention): T5Attention(
        (q): Linear(in_features=1472, out_features=384, bias=False)
        (k): Linear(in_features=1472, out_features=384, bias=False)
        (v): Linear(in_features=1472, out_features=384, bias=False)
        (o): Linear(in_features=384, out_features=1472, bias=False)
      )
      (layer_norm): T5LayerNorm()
      (dropout): Dropout(p=0.1, inplace=False)
    )
    (1): T5LayerFF(
      (DenseReluDense): T5DenseGatedGeluDense(
        (wi_0): Linear(in_features=1472, out_features=3584, bias=False)
        (wi_1): Linear(in_features=1472, out_features=3584, bias=False)
        (wo): Linear(in_features=3584, out_features=1472, bias=False)
        (dropout): Dropout(p=0.1, inplace=False)
      )
      (layer_norm): T5LayerNorm()
      (dropout): Dropout(p=0.1, inplace=False)
    )
  )
)
ModuleList(
  (0): T5LayerSelfAttention(
    (SelfAttention): T5Attention(
      (q): Linear(in_features=1472, out_features=384, bias=False)
      (k): Linear(in_features=1472, out_features=384, bias=False)
      (v): Linear(in_features=1472, out_features=384, bias=False)
      (o): Linear(in_features=384, out_features=1472, bias=False)
    )
    (layer_norm): T5LayerNorm()
    (dropout): Dropout(p=0.1, inplace=False)
  )
  (1): T5LayerFF(
    (DenseReluDense): T5DenseGatedGeluDense(
      (wi_0): Linear(in_features=1472, out_features=3584, bias=False)
      (wi_1): Linear(in_features=1472, out_features=3584, bias=False)
      (wo): Linear(in_features=3584, out_features=1472, bias=False)
      (dropout): Dropout(p=0.1, inplace=False)
    )
    (layer_norm): T5LayerNorm()
    (dropout): Dropout(p=0.1, inplace=False)
  )
)
T5LayerSelfAttention(
  (SelfAttention): T5Attention(
    (q): Linear(in_features=1472, out_features=384, bias=False)
    (k): Linear(in_features=1472, out_features=384, bias=False)
    (v): Linear(in_features=1472, out_features=384, bias=False)
    (o): Linear(in_features=384, out_features=1472, bias=False)
  )
  (layer_norm): T5LayerNorm()
  (dropout): Dropout(p=0.1, inplace=False)
)
T5Attention(
  (q): Linear(in_features=1472, out_features=384, bias=False)
  (k): Linear(in_features=1472, out_features=384, bias=False)
  (v): Linear(in_features=1472, out_features=384, bias=False)
  (o): Linear(in_features=384, out_features=1472, bias=False)
)
Linear(in_features=1472, out_features=384, bias=False)
Linear(in_features=1472, out_features=384, bias=False)
Linear(in_features=1472, out_features=384, bias=False)
Linear(in_features=384, out_features=1472, bias=False)
T5LayerNorm()
Dropout(p=0.1, inplace=False)
T5LayerFF(
  (DenseReluDense): T5DenseGatedGeluDense(
    (wi_0): Linear(in_features=1472, out_features=3584, bias=False)
    (wi_1): Linear(in_features=1472, out_features=3584, bias=False)
    (wo): Linear(in_features=3584, out_features=1472, bias=False)
    (dropout): Dropout(p=0.1, inplace=False)
  )
  (layer_norm): T5LayerNorm()
  (dropout): Dropout(p=0.1, inplace=False)
)
T5DenseGatedGeluDense(
  (wi_0): Linear(in_features=1472, out_features=3584, bias=False)
  (wi_1): Linear(in_features=1472, out_features=3584, bias=False)
  (wo): Linear(in_features=3584, out_features=1472, bias=False)
  (dropout): Dropout(p=0.1, inplace=False)
)
Linear(in_features=1472, out_features=3584, bias=False)
Linear(in_features=1472, out_features=3584, bias=False)
Linear(in_features=3584, out_features=1472, bias=False)
Dropout(p=0.1, inplace=False)
T5LayerNorm()
Dropout(p=0.1, inplace=False)
T5Block(
  (layer): ModuleList(
    (0): T5LayerSelfAttention(
      (SelfAttention): T5Attention(
        (q): Linear(in_features=1472, out_features=384, bias=False)
        (k): Linear(in_features=1472, out_features=384, bias=False)
        (v): Linear(in_features=1472, out_features=384, bias=False)
        (o): Linear(in_features=384, out_features=1472, bias=False)
      )
      (layer_norm): T5LayerNorm()
      (dropout): Dropout(p=0.1, inplace=False)
    )
    (1): T5LayerFF(
      (DenseReluDense): T5DenseGatedGeluDense(
        (wi_0): Linear(in_features=1472, out_features=3584, bias=False)
        (wi_1): Linear(in_features=1472, out_features=3584, bias=False)
        (wo): Linear(in_features=3584, out_features=1472, bias=False)
        (dropout): Dropout(p=0.1, inplace=False)
      )
      (layer_norm): T5LayerNorm()
      (dropout): Dropout(p=0.1, inplace=False)
    )
  )
)
ModuleList(
  (0): T5LayerSelfAttention(
    (SelfAttention): T5Attention(
      (q): Linear(in_features=1472, out_features=384, bias=False)
      (k): Linear(in_features=1472, out_features=384, bias=False)
      (v): Linear(in_features=1472, out_features=384, bias=False)
      (o): Linear(in_features=384, out_features=1472, bias=False)
    )
    (layer_norm): T5LayerNorm()
    (dropout): Dropout(p=0.1, inplace=False)
  )
  (1): T5LayerFF(
    (DenseReluDense): T5DenseGatedGeluDense(
      (wi_0): Linear(in_features=1472, out_features=3584, bias=False)
      (wi_1): Linear(in_features=1472, out_features=3584, bias=False)
      (wo): Linear(in_features=3584, out_features=1472, bias=False)
      (dropout): Dropout(p=0.1, inplace=False)
    )
    (layer_norm): T5LayerNorm()
    (dropout): Dropout(p=0.1, inplace=False)
  )
)
T5LayerSelfAttention(
  (SelfAttention): T5Attention(
    (q): Linear(in_features=1472, out_features=384, bias=False)
    (k): Linear(in_features=1472, out_features=384, bias=False)
    (v): Linear(in_features=1472, out_features=384, bias=False)
    (o): Linear(in_features=384, out_features=1472, bias=False)
  )
  (layer_norm): T5LayerNorm()
  (dropout): Dropout(p=0.1, inplace=False)
)
T5Attention(
  (q): Linear(in_features=1472, out_features=384, bias=False)
  (k): Linear(in_features=1472, out_features=384, bias=False)
  (v): Linear(in_features=1472, out_features=384, bias=False)
  (o): Linear(in_features=384, out_features=1472, bias=False)
)
Linear(in_features=1472, out_features=384, bias=False)
Linear(in_features=1472, out_features=384, bias=False)
Linear(in_features=1472, out_features=384, bias=False)
Linear(in_features=384, out_features=1472, bias=False)
T5LayerNorm()
Dropout(p=0.1, inplace=False)
T5LayerFF(
  (DenseReluDense): T5DenseGatedGeluDense(
    (wi_0): Linear(in_features=1472, out_features=3584, bias=False)
    (wi_1): Linear(in_features=1472, out_features=3584, bias=False)
    (wo): Linear(in_features=3584, out_features=1472, bias=False)
    (dropout): Dropout(p=0.1, inplace=False)
  )
  (layer_norm): T5LayerNorm()
  (dropout): Dropout(p=0.1, inplace=False)
)
T5DenseGatedGeluDense(
  (wi_0): Linear(in_features=1472, out_features=3584, bias=False)
  (wi_1): Linear(in_features=1472, out_features=3584, bias=False)
  (wo): Linear(in_features=3584, out_features=1472, bias=False)
  (dropout): Dropout(p=0.1, inplace=False)
)
Linear(in_features=1472, out_features=3584, bias=False)
Linear(in_features=1472, out_features=3584, bias=False)
Linear(in_features=3584, out_features=1472, bias=False)
Dropout(p=0.1, inplace=False)
T5LayerNorm()
Dropout(p=0.1, inplace=False)
T5Block(
  (layer): ModuleList(
    (0): T5LayerSelfAttention(
      (SelfAttention): T5Attention(
        (q): Linear(in_features=1472, out_features=384, bias=False)
        (k): Linear(in_features=1472, out_features=384, bias=False)
        (v): Linear(in_features=1472, out_features=384, bias=False)
        (o): Linear(in_features=384, out_features=1472, bias=False)
      )
      (layer_norm): T5LayerNorm()
      (dropout): Dropout(p=0.1, inplace=False)
    )
    (1): T5LayerFF(
      (DenseReluDense): T5DenseGatedGeluDense(
        (wi_0): Linear(in_features=1472, out_features=3584, bias=False)
        (wi_1): Linear(in_features=1472, out_features=3584, bias=False)
        (wo): Linear(in_features=3584, out_features=1472, bias=False)
        (dropout): Dropout(p=0.1, inplace=False)
      )
      (layer_norm): T5LayerNorm()
      (dropout): Dropout(p=0.1, inplace=False)
    )
  )
)
ModuleList(
  (0): T5LayerSelfAttention(
    (SelfAttention): T5Attention(
      (q): Linear(in_features=1472, out_features=384, bias=False)
      (k): Linear(in_features=1472, out_features=384, bias=False)
      (v): Linear(in_features=1472, out_features=384, bias=False)
      (o): Linear(in_features=384, out_features=1472, bias=False)
    )
    (layer_norm): T5LayerNorm()
    (dropout): Dropout(p=0.1, inplace=False)
  )
  (1): T5LayerFF(
    (DenseReluDense): T5DenseGatedGeluDense(
      (wi_0): Linear(in_features=1472, out_features=3584, bias=False)
      (wi_1): Linear(in_features=1472, out_features=3584, bias=False)
      (wo): Linear(in_features=3584, out_features=1472, bias=False)
      (dropout): Dropout(p=0.1, inplace=False)
    )
    (layer_norm): T5LayerNorm()
    (dropout): Dropout(p=0.1, inplace=False)
  )
)
T5LayerSelfAttention(
  (SelfAttention): T5Attention(
    (q): Linear(in_features=1472, out_features=384, bias=False)
    (k): Linear(in_features=1472, out_features=384, bias=False)
    (v): Linear(in_features=1472, out_features=384, bias=False)
    (o): Linear(in_features=384, out_features=1472, bias=False)
  )
  (layer_norm): T5LayerNorm()
  (dropout): Dropout(p=0.1, inplace=False)
)
T5Attention(
  (q): Linear(in_features=1472, out_features=384, bias=False)
  (k): Linear(in_features=1472, out_features=384, bias=False)
  (v): Linear(in_features=1472, out_features=384, bias=False)
  (o): Linear(in_features=384, out_features=1472, bias=False)
)
Linear(in_features=1472, out_features=384, bias=False)
Linear(in_features=1472, out_features=384, bias=False)
Linear(in_features=1472, out_features=384, bias=False)
Linear(in_features=384, out_features=1472, bias=False)
T5LayerNorm()
Dropout(p=0.1, inplace=False)
T5LayerFF(
  (DenseReluDense): T5DenseGatedGeluDense(
    (wi_0): Linear(in_features=1472, out_features=3584, bias=False)
    (wi_1): Linear(in_features=1472, out_features=3584, bias=False)
    (wo): Linear(in_features=3584, out_features=1472, bias=False)
    (dropout): Dropout(p=0.1, inplace=False)
  )
  (layer_norm): T5LayerNorm()
  (dropout): Dropout(p=0.1, inplace=False)
)
T5DenseGatedGeluDense(
  (wi_0): Linear(in_features=1472, out_features=3584, bias=False)
  (wi_1): Linear(in_features=1472, out_features=3584, bias=False)
  (wo): Linear(in_features=3584, out_features=1472, bias=False)
  (dropout): Dropout(p=0.1, inplace=False)
)
Linear(in_features=1472, out_features=3584, bias=False)
Linear(in_features=1472, out_features=3584, bias=False)
Linear(in_features=3584, out_features=1472, bias=False)
Dropout(p=0.1, inplace=False)
T5LayerNorm()
Dropout(p=0.1, inplace=False)
T5Block(
  (layer): ModuleList(
    (0): T5LayerSelfAttention(
      (SelfAttention): T5Attention(
        (q): Linear(in_features=1472, out_features=384, bias=False)
        (k): Linear(in_features=1472, out_features=384, bias=False)
        (v): Linear(in_features=1472, out_features=384, bias=False)
        (o): Linear(in_features=384, out_features=1472, bias=False)
      )
      (layer_norm): T5LayerNorm()
      (dropout): Dropout(p=0.1, inplace=False)
    )
    (1): T5LayerFF(
      (DenseReluDense): T5DenseGatedGeluDense(
        (wi_0): Linear(in_features=1472, out_features=3584, bias=False)
        (wi_1): Linear(in_features=1472, out_features=3584, bias=False)
        (wo): Linear(in_features=3584, out_features=1472, bias=False)
        (dropout): Dropout(p=0.1, inplace=False)
      )
      (layer_norm): T5LayerNorm()
      (dropout): Dropout(p=0.1, inplace=False)
    )
  )
)
ModuleList(
  (0): T5LayerSelfAttention(
    (SelfAttention): T5Attention(
      (q): Linear(in_features=1472, out_features=384, bias=False)
      (k): Linear(in_features=1472, out_features=384, bias=False)
      (v): Linear(in_features=1472, out_features=384, bias=False)
      (o): Linear(in_features=384, out_features=1472, bias=False)
    )
    (layer_norm): T5LayerNorm()
    (dropout): Dropout(p=0.1, inplace=False)
  )
  (1): T5LayerFF(
    (DenseReluDense): T5DenseGatedGeluDense(
      (wi_0): Linear(in_features=1472, out_features=3584, bias=False)
      (wi_1): Linear(in_features=1472, out_features=3584, bias=False)
      (wo): Linear(in_features=3584, out_features=1472, bias=False)
      (dropout): Dropout(p=0.1, inplace=False)
    )
    (layer_norm): T5LayerNorm()
    (dropout): Dropout(p=0.1, inplace=False)
  )
)
T5LayerSelfAttention(
  (SelfAttention): T5Attention(
    (q): Linear(in_features=1472, out_features=384, bias=False)
    (k): Linear(in_features=1472, out_features=384, bias=False)
    (v): Linear(in_features=1472, out_features=384, bias=False)
    (o): Linear(in_features=384, out_features=1472, bias=False)
  )
  (layer_norm): T5LayerNorm()
  (dropout): Dropout(p=0.1, inplace=False)
)
T5Attention(
  (q): Linear(in_features=1472, out_features=384, bias=False)
  (k): Linear(in_features=1472, out_features=384, bias=False)
  (v): Linear(in_features=1472, out_features=384, bias=False)
  (o): Linear(in_features=384, out_features=1472, bias=False)
)
Linear(in_features=1472, out_features=384, bias=False)
Linear(in_features=1472, out_features=384, bias=False)
Linear(in_features=1472, out_features=384, bias=False)
Linear(in_features=384, out_features=1472, bias=False)
T5LayerNorm()
Dropout(p=0.1, inplace=False)
T5LayerFF(
  (DenseReluDense): T5DenseGatedGeluDense(
    (wi_0): Linear(in_features=1472, out_features=3584, bias=False)
    (wi_1): Linear(in_features=1472, out_features=3584, bias=False)
    (wo): Linear(in_features=3584, out_features=1472, bias=False)
    (dropout): Dropout(p=0.1, inplace=False)
  )
  (layer_norm): T5LayerNorm()
  (dropout): Dropout(p=0.1, inplace=False)
)
T5DenseGatedGeluDense(
  (wi_0): Linear(in_features=1472, out_features=3584, bias=False)
  (wi_1): Linear(in_features=1472, out_features=3584, bias=False)
  (wo): Linear(in_features=3584, out_features=1472, bias=False)
  (dropout): Dropout(p=0.1, inplace=False)
)
Linear(in_features=1472, out_features=3584, bias=False)
Linear(in_features=1472, out_features=3584, bias=False)
Linear(in_features=3584, out_features=1472, bias=False)
Dropout(p=0.1, inplace=False)
T5LayerNorm()
Dropout(p=0.1, inplace=False)
T5LayerNorm()
Dropout(p=0.1, inplace=False)
T5Stack(
  (embed_tokens): Embedding(384, 1472)
  (block): ModuleList(
    (0): T5Block(
      (layer): ModuleList(
        (0): T5LayerSelfAttention(
          (SelfAttention): T5Attention(
            (q): Linear(in_features=1472, out_features=384, bias=False)
            (k): Linear(in_features=1472, out_features=384, bias=False)
            (v): Linear(in_features=1472, out_features=384, bias=False)
            (o): Linear(in_features=384, out_features=1472, bias=False)
            (relative_attention_bias): Embedding(32, 6)
          )
          (layer_norm): T5LayerNorm()
          (dropout): Dropout(p=0.1, inplace=False)
        )
        (1): T5LayerCrossAttention(
          (EncDecAttention): T5Attention(
            (q): Linear(in_features=1472, out_features=384, bias=False)
            (k): Linear(in_features=1472, out_features=384, bias=False)
            (v): Linear(in_features=1472, out_features=384, bias=False)
            (o): Linear(in_features=384, out_features=1472, bias=False)
          )
          (layer_norm): T5LayerNorm()
          (dropout): Dropout(p=0.1, inplace=False)
        )
        (2): T5LayerFF(
          (DenseReluDense): T5DenseGatedGeluDense(
            (wi_0): Linear(in_features=1472, out_features=3584, bias=False)
            (wi_1): Linear(in_features=1472, out_features=3584, bias=False)
            (wo): Linear(in_features=3584, out_features=1472, bias=False)
            (dropout): Dropout(p=0.1, inplace=False)
          )
          (layer_norm): T5LayerNorm()
          (dropout): Dropout(p=0.1, inplace=False)
        )
      )
    )
    (1): T5Block(
      (layer): ModuleList(
        (0): T5LayerSelfAttention(
          (SelfAttention): T5Attention(
            (q): Linear(in_features=1472, out_features=384, bias=False)
            (k): Linear(in_features=1472, out_features=384, bias=False)
            (v): Linear(in_features=1472, out_features=384, bias=False)
            (o): Linear(in_features=384, out_features=1472, bias=False)
          )
          (layer_norm): T5LayerNorm()
          (dropout): Dropout(p=0.1, inplace=False)
        )
        (1): T5LayerCrossAttention(
          (EncDecAttention): T5Attention(
            (q): Linear(in_features=1472, out_features=384, bias=False)
            (k): Linear(in_features=1472, out_features=384, bias=False)
            (v): Linear(in_features=1472, out_features=384, bias=False)
            (o): Linear(in_features=384, out_features=1472, bias=False)
          )
          (layer_norm): T5LayerNorm()
          (dropout): Dropout(p=0.1, inplace=False)
        )
        (2): T5LayerFF(
          (DenseReluDense): T5DenseGatedGeluDense(
            (wi_0): Linear(in_features=1472, out_features=3584, bias=False)
            (wi_1): Linear(in_features=1472, out_features=3584, bias=False)
            (wo): Linear(in_features=3584, out_features=1472, bias=False)
            (dropout): Dropout(p=0.1, inplace=False)
          )
          (layer_norm): T5LayerNorm()
          (dropout): Dropout(p=0.1, inplace=False)
        )
      )
    )
    (2): T5Block(
      (layer): ModuleList(
        (0): T5LayerSelfAttention(
          (SelfAttention): T5Attention(
            (q): Linear(in_features=1472, out_features=384, bias=False)
            (k): Linear(in_features=1472, out_features=384, bias=False)
            (v): Linear(in_features=1472, out_features=384, bias=False)
            (o): Linear(in_features=384, out_features=1472, bias=False)
          )
          (layer_norm): T5LayerNorm()
          (dropout): Dropout(p=0.1, inplace=False)
        )
        (1): T5LayerCrossAttention(
          (EncDecAttention): T5Attention(
            (q): Linear(in_features=1472, out_features=384, bias=False)
            (k): Linear(in_features=1472, out_features=384, bias=False)
            (v): Linear(in_features=1472, out_features=384, bias=False)
            (o): Linear(in_features=384, out_features=1472, bias=False)
          )
          (layer_norm): T5LayerNorm()
          (dropout): Dropout(p=0.1, inplace=False)
        )
        (2): T5LayerFF(
          (DenseReluDense): T5DenseGatedGeluDense(
            (wi_0): Linear(in_features=1472, out_features=3584, bias=False)
            (wi_1): Linear(in_features=1472, out_features=3584, bias=False)
            (wo): Linear(in_features=3584, out_features=1472, bias=False)
            (dropout): Dropout(p=0.1, inplace=False)
          )
          (layer_norm): T5LayerNorm()
          (dropout): Dropout(p=0.1, inplace=False)
        )
      )
    )
    (3): T5Block(
      (layer): ModuleList(
        (0): T5LayerSelfAttention(
          (SelfAttention): T5Attention(
            (q): Linear(in_features=1472, out_features=384, bias=False)
            (k): Linear(in_features=1472, out_features=384, bias=False)
            (v): Linear(in_features=1472, out_features=384, bias=False)
            (o): Linear(in_features=384, out_features=1472, bias=False)
          )
          (layer_norm): T5LayerNorm()
          (dropout): Dropout(p=0.1, inplace=False)
        )
        (1): T5LayerCrossAttention(
          (EncDecAttention): T5Attention(
            (q): Linear(in_features=1472, out_features=384, bias=False)
            (k): Linear(in_features=1472, out_features=384, bias=False)
            (v): Linear(in_features=1472, out_features=384, bias=False)
            (o): Linear(in_features=384, out_features=1472, bias=False)
          )
          (layer_norm): T5LayerNorm()
          (dropout): Dropout(p=0.1, inplace=False)
        )
        (2): T5LayerFF(
          (DenseReluDense): T5DenseGatedGeluDense(
            (wi_0): Linear(in_features=1472, out_features=3584, bias=False)
            (wi_1): Linear(in_features=1472, out_features=3584, bias=False)
            (wo): Linear(in_features=3584, out_features=1472, bias=False)
            (dropout): Dropout(p=0.1, inplace=False)
          )
          (layer_norm): T5LayerNorm()
          (dropout): Dropout(p=0.1, inplace=False)
        )
      )
    )
  )
  (final_layer_norm): T5LayerNorm()
  (dropout): Dropout(p=0.1, inplace=False)
)
ModuleList(
  (0): T5Block(
    (layer): ModuleList(
      (0): T5LayerSelfAttention(
        (SelfAttention): T5Attention(
          (q): Linear(in_features=1472, out_features=384, bias=False)
          (k): Linear(in_features=1472, out_features=384, bias=False)
          (v): Linear(in_features=1472, out_features=384, bias=False)
          (o): Linear(in_features=384, out_features=1472, bias=False)
          (relative_attention_bias): Embedding(32, 6)
        )
        (layer_norm): T5LayerNorm()
        (dropout): Dropout(p=0.1, inplace=False)
      )
      (1): T5LayerCrossAttention(
        (EncDecAttention): T5Attention(
          (q): Linear(in_features=1472, out_features=384, bias=False)
          (k): Linear(in_features=1472, out_features=384, bias=False)
          (v): Linear(in_features=1472, out_features=384, bias=False)
          (o): Linear(in_features=384, out_features=1472, bias=False)
        )
        (layer_norm): T5LayerNorm()
        (dropout): Dropout(p=0.1, inplace=False)
      )
      (2): T5LayerFF(
        (DenseReluDense): T5DenseGatedGeluDense(
          (wi_0): Linear(in_features=1472, out_features=3584, bias=False)
          (wi_1): Linear(in_features=1472, out_features=3584, bias=False)
          (wo): Linear(in_features=3584, out_features=1472, bias=False)
          (dropout): Dropout(p=0.1, inplace=False)
        )
        (layer_norm): T5LayerNorm()
        (dropout): Dropout(p=0.1, inplace=False)
      )
    )
  )
  (1): T5Block(
    (layer): ModuleList(
      (0): T5LayerSelfAttention(
        (SelfAttention): T5Attention(
          (q): Linear(in_features=1472, out_features=384, bias=False)
          (k): Linear(in_features=1472, out_features=384, bias=False)
          (v): Linear(in_features=1472, out_features=384, bias=False)
          (o): Linear(in_features=384, out_features=1472, bias=False)
        )
        (layer_norm): T5LayerNorm()
        (dropout): Dropout(p=0.1, inplace=False)
      )
      (1): T5LayerCrossAttention(
        (EncDecAttention): T5Attention(
          (q): Linear(in_features=1472, out_features=384, bias=False)
          (k): Linear(in_features=1472, out_features=384, bias=False)
          (v): Linear(in_features=1472, out_features=384, bias=False)
          (o): Linear(in_features=384, out_features=1472, bias=False)
        )
        (layer_norm): T5LayerNorm()
        (dropout): Dropout(p=0.1, inplace=False)
      )
      (2): T5LayerFF(
        (DenseReluDense): T5DenseGatedGeluDense(
          (wi_0): Linear(in_features=1472, out_features=3584, bias=False)
          (wi_1): Linear(in_features=1472, out_features=3584, bias=False)
          (wo): Linear(in_features=3584, out_features=1472, bias=False)
          (dropout): Dropout(p=0.1, inplace=False)
        )
        (layer_norm): T5LayerNorm()
        (dropout): Dropout(p=0.1, inplace=False)
      )
    )
  )
  (2): T5Block(
    (layer): ModuleList(
      (0): T5LayerSelfAttention(
        (SelfAttention): T5Attention(
          (q): Linear(in_features=1472, out_features=384, bias=False)
          (k): Linear(in_features=1472, out_features=384, bias=False)
          (v): Linear(in_features=1472, out_features=384, bias=False)
          (o): Linear(in_features=384, out_features=1472, bias=False)
        )
        (layer_norm): T5LayerNorm()
        (dropout): Dropout(p=0.1, inplace=False)
      )
      (1): T5LayerCrossAttention(
        (EncDecAttention): T5Attention(
          (q): Linear(in_features=1472, out_features=384, bias=False)
          (k): Linear(in_features=1472, out_features=384, bias=False)
          (v): Linear(in_features=1472, out_features=384, bias=False)
          (o): Linear(in_features=384, out_features=1472, bias=False)
        )
        (layer_norm): T5LayerNorm()
        (dropout): Dropout(p=0.1, inplace=False)
      )
      (2): T5LayerFF(
        (DenseReluDense): T5DenseGatedGeluDense(
          (wi_0): Linear(in_features=1472, out_features=3584, bias=False)
          (wi_1): Linear(in_features=1472, out_features=3584, bias=False)
          (wo): Linear(in_features=3584, out_features=1472, bias=False)
          (dropout): Dropout(p=0.1, inplace=False)
        )
        (layer_norm): T5LayerNorm()
        (dropout): Dropout(p=0.1, inplace=False)
      )
    )
  )
  (3): T5Block(
    (layer): ModuleList(
      (0): T5LayerSelfAttention(
        (SelfAttention): T5Attention(
          (q): Linear(in_features=1472, out_features=384, bias=False)
          (k): Linear(in_features=1472, out_features=384, bias=False)
          (v): Linear(in_features=1472, out_features=384, bias=False)
          (o): Linear(in_features=384, out_features=1472, bias=False)
        )
        (layer_norm): T5LayerNorm()
        (dropout): Dropout(p=0.1, inplace=False)
      )
      (1): T5LayerCrossAttention(
        (EncDecAttention): T5Attention(
          (q): Linear(in_features=1472, out_features=384, bias=False)
          (k): Linear(in_features=1472, out_features=384, bias=False)
          (v): Linear(in_features=1472, out_features=384, bias=False)
          (o): Linear(in_features=384, out_features=1472, bias=False)
        )
        (layer_norm): T5LayerNorm()
        (dropout): Dropout(p=0.1, inplace=False)
      )
      (2): T5LayerFF(
        (DenseReluDense): T5DenseGatedGeluDense(
          (wi_0): Linear(in_features=1472, out_features=3584, bias=False)
          (wi_1): Linear(in_features=1472, out_features=3584, bias=False)
          (wo): Linear(in_features=3584, out_features=1472, bias=False)
          (dropout): Dropout(p=0.1, inplace=False)
        )
        (layer_norm): T5LayerNorm()
        (dropout): Dropout(p=0.1, inplace=False)
      )
    )
  )
)
T5Block(
  (layer): ModuleList(
    (0): T5LayerSelfAttention(
      (SelfAttention): T5Attention(
        (q): Linear(in_features=1472, out_features=384, bias=False)
        (k): Linear(in_features=1472, out_features=384, bias=False)
        (v): Linear(in_features=1472, out_features=384, bias=False)
        (o): Linear(in_features=384, out_features=1472, bias=False)
        (relative_attention_bias): Embedding(32, 6)
      )
      (layer_norm): T5LayerNorm()
      (dropout): Dropout(p=0.1, inplace=False)
    )
    (1): T5LayerCrossAttention(
      (EncDecAttention): T5Attention(
        (q): Linear(in_features=1472, out_features=384, bias=False)
        (k): Linear(in_features=1472, out_features=384, bias=False)
        (v): Linear(in_features=1472, out_features=384, bias=False)
        (o): Linear(in_features=384, out_features=1472, bias=False)
      )
      (layer_norm): T5LayerNorm()
      (dropout): Dropout(p=0.1, inplace=False)
    )
    (2): T5LayerFF(
      (DenseReluDense): T5DenseGatedGeluDense(
        (wi_0): Linear(in_features=1472, out_features=3584, bias=False)
        (wi_1): Linear(in_features=1472, out_features=3584, bias=False)
        (wo): Linear(in_features=3584, out_features=1472, bias=False)
        (dropout): Dropout(p=0.1, inplace=False)
      )
      (layer_norm): T5LayerNorm()
      (dropout): Dropout(p=0.1, inplace=False)
    )
  )
)
ModuleList(
  (0): T5LayerSelfAttention(
    (SelfAttention): T5Attention(
      (q): Linear(in_features=1472, out_features=384, bias=False)
      (k): Linear(in_features=1472, out_features=384, bias=False)
      (v): Linear(in_features=1472, out_features=384, bias=False)
      (o): Linear(in_features=384, out_features=1472, bias=False)
      (relative_attention_bias): Embedding(32, 6)
    )
    (layer_norm): T5LayerNorm()
    (dropout): Dropout(p=0.1, inplace=False)
  )
  (1): T5LayerCrossAttention(
    (EncDecAttention): T5Attention(
      (q): Linear(in_features=1472, out_features=384, bias=False)
      (k): Linear(in_features=1472, out_features=384, bias=False)
      (v): Linear(in_features=1472, out_features=384, bias=False)
      (o): Linear(in_features=384, out_features=1472, bias=False)
    )
    (layer_norm): T5LayerNorm()
    (dropout): Dropout(p=0.1, inplace=False)
  )
  (2): T5LayerFF(
    (DenseReluDense): T5DenseGatedGeluDense(
      (wi_0): Linear(in_features=1472, out_features=3584, bias=False)
      (wi_1): Linear(in_features=1472, out_features=3584, bias=False)
      (wo): Linear(in_features=3584, out_features=1472, bias=False)
      (dropout): Dropout(p=0.1, inplace=False)
    )
    (layer_norm): T5LayerNorm()
    (dropout): Dropout(p=0.1, inplace=False)
  )
)
T5LayerSelfAttention(
  (SelfAttention): T5Attention(
    (q): Linear(in_features=1472, out_features=384, bias=False)
    (k): Linear(in_features=1472, out_features=384, bias=False)
    (v): Linear(in_features=1472, out_features=384, bias=False)
    (o): Linear(in_features=384, out_features=1472, bias=False)
    (relative_attention_bias): Embedding(32, 6)
  )
  (layer_norm): T5LayerNorm()
  (dropout): Dropout(p=0.1, inplace=False)
)
T5Attention(
  (q): Linear(in_features=1472, out_features=384, bias=False)
  (k): Linear(in_features=1472, out_features=384, bias=False)
  (v): Linear(in_features=1472, out_features=384, bias=False)
  (o): Linear(in_features=384, out_features=1472, bias=False)
  (relative_attention_bias): Embedding(32, 6)
)
Linear(in_features=1472, out_features=384, bias=False)
Linear(in_features=1472, out_features=384, bias=False)
Linear(in_features=1472, out_features=384, bias=False)
Linear(in_features=384, out_features=1472, bias=False)
Embedding(32, 6)
T5LayerNorm()
Dropout(p=0.1, inplace=False)
T5LayerCrossAttention(
  (EncDecAttention): T5Attention(
    (q): Linear(in_features=1472, out_features=384, bias=False)
    (k): Linear(in_features=1472, out_features=384, bias=False)
    (v): Linear(in_features=1472, out_features=384, bias=False)
    (o): Linear(in_features=384, out_features=1472, bias=False)
  )
  (layer_norm): T5LayerNorm()
  (dropout): Dropout(p=0.1, inplace=False)
)
T5Attention(
  (q): Linear(in_features=1472, out_features=384, bias=False)
  (k): Linear(in_features=1472, out_features=384, bias=False)
  (v): Linear(in_features=1472, out_features=384, bias=False)
  (o): Linear(in_features=384, out_features=1472, bias=False)
)
Linear(in_features=1472, out_features=384, bias=False)
Linear(in_features=1472, out_features=384, bias=False)
Linear(in_features=1472, out_features=384, bias=False)
Linear(in_features=384, out_features=1472, bias=False)
T5LayerNorm()
Dropout(p=0.1, inplace=False)
T5LayerFF(
  (DenseReluDense): T5DenseGatedGeluDense(
    (wi_0): Linear(in_features=1472, out_features=3584, bias=False)
    (wi_1): Linear(in_features=1472, out_features=3584, bias=False)
    (wo): Linear(in_features=3584, out_features=1472, bias=False)
    (dropout): Dropout(p=0.1, inplace=False)
  )
  (layer_norm): T5LayerNorm()
  (dropout): Dropout(p=0.1, inplace=False)
)
T5DenseGatedGeluDense(
  (wi_0): Linear(in_features=1472, out_features=3584, bias=False)
  (wi_1): Linear(in_features=1472, out_features=3584, bias=False)
  (wo): Linear(in_features=3584, out_features=1472, bias=False)
  (dropout): Dropout(p=0.1, inplace=False)
)
Linear(in_features=1472, out_features=3584, bias=False)
Linear(in_features=1472, out_features=3584, bias=False)
Linear(in_features=3584, out_features=1472, bias=False)
Dropout(p=0.1, inplace=False)
T5LayerNorm()
Dropout(p=0.1, inplace=False)
T5Block(
  (layer): ModuleList(
    (0): T5LayerSelfAttention(
      (SelfAttention): T5Attention(
        (q): Linear(in_features=1472, out_features=384, bias=False)
        (k): Linear(in_features=1472, out_features=384, bias=False)
        (v): Linear(in_features=1472, out_features=384, bias=False)
        (o): Linear(in_features=384, out_features=1472, bias=False)
      )
      (layer_norm): T5LayerNorm()
      (dropout): Dropout(p=0.1, inplace=False)
    )
    (1): T5LayerCrossAttention(
      (EncDecAttention): T5Attention(
        (q): Linear(in_features=1472, out_features=384, bias=False)
        (k): Linear(in_features=1472, out_features=384, bias=False)
        (v): Linear(in_features=1472, out_features=384, bias=False)
        (o): Linear(in_features=384, out_features=1472, bias=False)
      )
      (layer_norm): T5LayerNorm()
      (dropout): Dropout(p=0.1, inplace=False)
    )
    (2): T5LayerFF(
      (DenseReluDense): T5DenseGatedGeluDense(
        (wi_0): Linear(in_features=1472, out_features=3584, bias=False)
        (wi_1): Linear(in_features=1472, out_features=3584, bias=False)
        (wo): Linear(in_features=3584, out_features=1472, bias=False)
        (dropout): Dropout(p=0.1, inplace=False)
      )
      (layer_norm): T5LayerNorm()
      (dropout): Dropout(p=0.1, inplace=False)
    )
  )
)
ModuleList(
  (0): T5LayerSelfAttention(
    (SelfAttention): T5Attention(
      (q): Linear(in_features=1472, out_features=384, bias=False)
      (k): Linear(in_features=1472, out_features=384, bias=False)
      (v): Linear(in_features=1472, out_features=384, bias=False)
      (o): Linear(in_features=384, out_features=1472, bias=False)
    )
    (layer_norm): T5LayerNorm()
    (dropout): Dropout(p=0.1, inplace=False)
  )
  (1): T5LayerCrossAttention(
    (EncDecAttention): T5Attention(
      (q): Linear(in_features=1472, out_features=384, bias=False)
      (k): Linear(in_features=1472, out_features=384, bias=False)
      (v): Linear(in_features=1472, out_features=384, bias=False)
      (o): Linear(in_features=384, out_features=1472, bias=False)
    )
    (layer_norm): T5LayerNorm()
    (dropout): Dropout(p=0.1, inplace=False)
  )
  (2): T5LayerFF(
    (DenseReluDense): T5DenseGatedGeluDense(
      (wi_0): Linear(in_features=1472, out_features=3584, bias=False)
      (wi_1): Linear(in_features=1472, out_features=3584, bias=False)
      (wo): Linear(in_features=3584, out_features=1472, bias=False)
      (dropout): Dropout(p=0.1, inplace=False)
    )
    (layer_norm): T5LayerNorm()
    (dropout): Dropout(p=0.1, inplace=False)
  )
)
T5LayerSelfAttention(
  (SelfAttention): T5Attention(
    (q): Linear(in_features=1472, out_features=384, bias=False)
    (k): Linear(in_features=1472, out_features=384, bias=False)
    (v): Linear(in_features=1472, out_features=384, bias=False)
    (o): Linear(in_features=384, out_features=1472, bias=False)
  )
  (layer_norm): T5LayerNorm()
  (dropout): Dropout(p=0.1, inplace=False)
)
T5Attention(
  (q): Linear(in_features=1472, out_features=384, bias=False)
  (k): Linear(in_features=1472, out_features=384, bias=False)
  (v): Linear(in_features=1472, out_features=384, bias=False)
  (o): Linear(in_features=384, out_features=1472, bias=False)
)
Linear(in_features=1472, out_features=384, bias=False)
Linear(in_features=1472, out_features=384, bias=False)
Linear(in_features=1472, out_features=384, bias=False)
Linear(in_features=384, out_features=1472, bias=False)
T5LayerNorm()
Dropout(p=0.1, inplace=False)
T5LayerCrossAttention(
  (EncDecAttention): T5Attention(
    (q): Linear(in_features=1472, out_features=384, bias=False)
    (k): Linear(in_features=1472, out_features=384, bias=False)
    (v): Linear(in_features=1472, out_features=384, bias=False)
    (o): Linear(in_features=384, out_features=1472, bias=False)
  )
  (layer_norm): T5LayerNorm()
  (dropout): Dropout(p=0.1, inplace=False)
)
T5Attention(
  (q): Linear(in_features=1472, out_features=384, bias=False)
  (k): Linear(in_features=1472, out_features=384, bias=False)
  (v): Linear(in_features=1472, out_features=384, bias=False)
  (o): Linear(in_features=384, out_features=1472, bias=False)
)
Linear(in_features=1472, out_features=384, bias=False)
Linear(in_features=1472, out_features=384, bias=False)
Linear(in_features=1472, out_features=384, bias=False)
Linear(in_features=384, out_features=1472, bias=False)
T5LayerNorm()
Dropout(p=0.1, inplace=False)
T5LayerFF(
  (DenseReluDense): T5DenseGatedGeluDense(
    (wi_0): Linear(in_features=1472, out_features=3584, bias=False)
    (wi_1): Linear(in_features=1472, out_features=3584, bias=False)
    (wo): Linear(in_features=3584, out_features=1472, bias=False)
    (dropout): Dropout(p=0.1, inplace=False)
  )
  (layer_norm): T5LayerNorm()
  (dropout): Dropout(p=0.1, inplace=False)
)
T5DenseGatedGeluDense(
  (wi_0): Linear(in_features=1472, out_features=3584, bias=False)
  (wi_1): Linear(in_features=1472, out_features=3584, bias=False)
  (wo): Linear(in_features=3584, out_features=1472, bias=False)
  (dropout): Dropout(p=0.1, inplace=False)
)
Linear(in_features=1472, out_features=3584, bias=False)
Linear(in_features=1472, out_features=3584, bias=False)
Linear(in_features=3584, out_features=1472, bias=False)
Dropout(p=0.1, inplace=False)
T5LayerNorm()
Dropout(p=0.1, inplace=False)
T5Block(
  (layer): ModuleList(
    (0): T5LayerSelfAttention(
      (SelfAttention): T5Attention(
        (q): Linear(in_features=1472, out_features=384, bias=False)
        (k): Linear(in_features=1472, out_features=384, bias=False)
        (v): Linear(in_features=1472, out_features=384, bias=False)
        (o): Linear(in_features=384, out_features=1472, bias=False)
      )
      (layer_norm): T5LayerNorm()
      (dropout): Dropout(p=0.1, inplace=False)
    )
    (1): T5LayerCrossAttention(
      (EncDecAttention): T5Attention(
        (q): Linear(in_features=1472, out_features=384, bias=False)
        (k): Linear(in_features=1472, out_features=384, bias=False)
        (v): Linear(in_features=1472, out_features=384, bias=False)
        (o): Linear(in_features=384, out_features=1472, bias=False)
      )
      (layer_norm): T5LayerNorm()
      (dropout): Dropout(p=0.1, inplace=False)
    )
    (2): T5LayerFF(
      (DenseReluDense): T5DenseGatedGeluDense(
        (wi_0): Linear(in_features=1472, out_features=3584, bias=False)
        (wi_1): Linear(in_features=1472, out_features=3584, bias=False)
        (wo): Linear(in_features=3584, out_features=1472, bias=False)
        (dropout): Dropout(p=0.1, inplace=False)
      )
      (layer_norm): T5LayerNorm()
      (dropout): Dropout(p=0.1, inplace=False)
    )
  )
)
ModuleList(
  (0): T5LayerSelfAttention(
    (SelfAttention): T5Attention(
      (q): Linear(in_features=1472, out_features=384, bias=False)
      (k): Linear(in_features=1472, out_features=384, bias=False)
      (v): Linear(in_features=1472, out_features=384, bias=False)
      (o): Linear(in_features=384, out_features=1472, bias=False)
    )
    (layer_norm): T5LayerNorm()
    (dropout): Dropout(p=0.1, inplace=False)
  )
  (1): T5LayerCrossAttention(
    (EncDecAttention): T5Attention(
      (q): Linear(in_features=1472, out_features=384, bias=False)
      (k): Linear(in_features=1472, out_features=384, bias=False)
      (v): Linear(in_features=1472, out_features=384, bias=False)
      (o): Linear(in_features=384, out_features=1472, bias=False)
    )
    (layer_norm): T5LayerNorm()
    (dropout): Dropout(p=0.1, inplace=False)
  )
  (2): T5LayerFF(
    (DenseReluDense): T5DenseGatedGeluDense(
      (wi_0): Linear(in_features=1472, out_features=3584, bias=False)
      (wi_1): Linear(in_features=1472, out_features=3584, bias=False)
      (wo): Linear(in_features=3584, out_features=1472, bias=False)
      (dropout): Dropout(p=0.1, inplace=False)
    )
    (layer_norm): T5LayerNorm()
    (dropout): Dropout(p=0.1, inplace=False)
  )
)
T5LayerSelfAttention(
  (SelfAttention): T5Attention(
    (q): Linear(in_features=1472, out_features=384, bias=False)
    (k): Linear(in_features=1472, out_features=384, bias=False)
    (v): Linear(in_features=1472, out_features=384, bias=False)
    (o): Linear(in_features=384, out_features=1472, bias=False)
  )
  (layer_norm): T5LayerNorm()
  (dropout): Dropout(p=0.1, inplace=False)
)
T5Attention(
  (q): Linear(in_features=1472, out_features=384, bias=False)
  (k): Linear(in_features=1472, out_features=384, bias=False)
  (v): Linear(in_features=1472, out_features=384, bias=False)
  (o): Linear(in_features=384, out_features=1472, bias=False)
)
Linear(in_features=1472, out_features=384, bias=False)
Linear(in_features=1472, out_features=384, bias=False)
Linear(in_features=1472, out_features=384, bias=False)
Linear(in_features=384, out_features=1472, bias=False)
T5LayerNorm()
Dropout(p=0.1, inplace=False)
T5LayerCrossAttention(
  (EncDecAttention): T5Attention(
    (q): Linear(in_features=1472, out_features=384, bias=False)
    (k): Linear(in_features=1472, out_features=384, bias=False)
    (v): Linear(in_features=1472, out_features=384, bias=False)
    (o): Linear(in_features=384, out_features=1472, bias=False)
  )
  (layer_norm): T5LayerNorm()
  (dropout): Dropout(p=0.1, inplace=False)
)
T5Attention(
  (q): Linear(in_features=1472, out_features=384, bias=False)
  (k): Linear(in_features=1472, out_features=384, bias=False)
  (v): Linear(in_features=1472, out_features=384, bias=False)
  (o): Linear(in_features=384, out_features=1472, bias=False)
)
Linear(in_features=1472, out_features=384, bias=False)
Linear(in_features=1472, out_features=384, bias=False)
Linear(in_features=1472, out_features=384, bias=False)
Linear(in_features=384, out_features=1472, bias=False)
T5LayerNorm()
Dropout(p=0.1, inplace=False)
T5LayerFF(
  (DenseReluDense): T5DenseGatedGeluDense(
    (wi_0): Linear(in_features=1472, out_features=3584, bias=False)
    (wi_1): Linear(in_features=1472, out_features=3584, bias=False)
    (wo): Linear(in_features=3584, out_features=1472, bias=False)
    (dropout): Dropout(p=0.1, inplace=False)
  )
  (layer_norm): T5LayerNorm()
  (dropout): Dropout(p=0.1, inplace=False)
)
T5DenseGatedGeluDense(
  (wi_0): Linear(in_features=1472, out_features=3584, bias=False)
  (wi_1): Linear(in_features=1472, out_features=3584, bias=False)
  (wo): Linear(in_features=3584, out_features=1472, bias=False)
  (dropout): Dropout(p=0.1, inplace=False)
)
Linear(in_features=1472, out_features=3584, bias=False)
Linear(in_features=1472, out_features=3584, bias=False)
Linear(in_features=3584, out_features=1472, bias=False)
Dropout(p=0.1, inplace=False)
T5LayerNorm()
Dropout(p=0.1, inplace=False)
T5Block(
  (layer): ModuleList(
    (0): T5LayerSelfAttention(
      (SelfAttention): T5Attention(
        (q): Linear(in_features=1472, out_features=384, bias=False)
        (k): Linear(in_features=1472, out_features=384, bias=False)
        (v): Linear(in_features=1472, out_features=384, bias=False)
        (o): Linear(in_features=384, out_features=1472, bias=False)
      )
      (layer_norm): T5LayerNorm()
      (dropout): Dropout(p=0.1, inplace=False)
    )
    (1): T5LayerCrossAttention(
      (EncDecAttention): T5Attention(
        (q): Linear(in_features=1472, out_features=384, bias=False)
        (k): Linear(in_features=1472, out_features=384, bias=False)
        (v): Linear(in_features=1472, out_features=384, bias=False)
        (o): Linear(in_features=384, out_features=1472, bias=False)
      )
      (layer_norm): T5LayerNorm()
      (dropout): Dropout(p=0.1, inplace=False)
    )
    (2): T5LayerFF(
      (DenseReluDense): T5DenseGatedGeluDense(
        (wi_0): Linear(in_features=1472, out_features=3584, bias=False)
        (wi_1): Linear(in_features=1472, out_features=3584, bias=False)
        (wo): Linear(in_features=3584, out_features=1472, bias=False)
        (dropout): Dropout(p=0.1, inplace=False)
      )
      (layer_norm): T5LayerNorm()
      (dropout): Dropout(p=0.1, inplace=False)
    )
  )
)
ModuleList(
  (0): T5LayerSelfAttention(
    (SelfAttention): T5Attention(
      (q): Linear(in_features=1472, out_features=384, bias=False)
      (k): Linear(in_features=1472, out_features=384, bias=False)
      (v): Linear(in_features=1472, out_features=384, bias=False)
      (o): Linear(in_features=384, out_features=1472, bias=False)
    )
    (layer_norm): T5LayerNorm()
    (dropout): Dropout(p=0.1, inplace=False)
  )
  (1): T5LayerCrossAttention(
    (EncDecAttention): T5Attention(
      (q): Linear(in_features=1472, out_features=384, bias=False)
      (k): Linear(in_features=1472, out_features=384, bias=False)
      (v): Linear(in_features=1472, out_features=384, bias=False)
      (o): Linear(in_features=384, out_features=1472, bias=False)
    )
    (layer_norm): T5LayerNorm()
    (dropout): Dropout(p=0.1, inplace=False)
  )
  (2): T5LayerFF(
    (DenseReluDense): T5DenseGatedGeluDense(
      (wi_0): Linear(in_features=1472, out_features=3584, bias=False)
      (wi_1): Linear(in_features=1472, out_features=3584, bias=False)
      (wo): Linear(in_features=3584, out_features=1472, bias=False)
      (dropout): Dropout(p=0.1, inplace=False)
    )
    (layer_norm): T5LayerNorm()
    (dropout): Dropout(p=0.1, inplace=False)
  )
)
T5LayerSelfAttention(
  (SelfAttention): T5Attention(
    (q): Linear(in_features=1472, out_features=384, bias=False)
    (k): Linear(in_features=1472, out_features=384, bias=False)
    (v): Linear(in_features=1472, out_features=384, bias=False)
    (o): Linear(in_features=384, out_features=1472, bias=False)
  )
  (layer_norm): T5LayerNorm()
  (dropout): Dropout(p=0.1, inplace=False)
)
T5Attention(
  (q): Linear(in_features=1472, out_features=384, bias=False)
  (k): Linear(in_features=1472, out_features=384, bias=False)
  (v): Linear(in_features=1472, out_features=384, bias=False)
  (o): Linear(in_features=384, out_features=1472, bias=False)
)
Linear(in_features=1472, out_features=384, bias=False)
Linear(in_features=1472, out_features=384, bias=False)
Linear(in_features=1472, out_features=384, bias=False)
Linear(in_features=384, out_features=1472, bias=False)
T5LayerNorm()
Dropout(p=0.1, inplace=False)
T5LayerCrossAttention(
  (EncDecAttention): T5Attention(
    (q): Linear(in_features=1472, out_features=384, bias=False)
    (k): Linear(in_features=1472, out_features=384, bias=False)
    (v): Linear(in_features=1472, out_features=384, bias=False)
    (o): Linear(in_features=384, out_features=1472, bias=False)
  )
  (layer_norm): T5LayerNorm()
  (dropout): Dropout(p=0.1, inplace=False)
)
T5Attention(
  (q): Linear(in_features=1472, out_features=384, bias=False)
  (k): Linear(in_features=1472, out_features=384, bias=False)
  (v): Linear(in_features=1472, out_features=384, bias=False)
  (o): Linear(in_features=384, out_features=1472, bias=False)
)
Linear(in_features=1472, out_features=384, bias=False)
Linear(in_features=1472, out_features=384, bias=False)
Linear(in_features=1472, out_features=384, bias=False)
Linear(in_features=384, out_features=1472, bias=False)
T5LayerNorm()
Dropout(p=0.1, inplace=False)
T5LayerFF(
  (DenseReluDense): T5DenseGatedGeluDense(
    (wi_0): Linear(in_features=1472, out_features=3584, bias=False)
    (wi_1): Linear(in_features=1472, out_features=3584, bias=False)
    (wo): Linear(in_features=3584, out_features=1472, bias=False)
    (dropout): Dropout(p=0.1, inplace=False)
  )
  (layer_norm): T5LayerNorm()
  (dropout): Dropout(p=0.1, inplace=False)
)
T5DenseGatedGeluDense(
  (wi_0): Linear(in_features=1472, out_features=3584, bias=False)
  (wi_1): Linear(in_features=1472, out_features=3584, bias=False)
  (wo): Linear(in_features=3584, out_features=1472, bias=False)
  (dropout): Dropout(p=0.1, inplace=False)
)
Linear(in_features=1472, out_features=3584, bias=False)
Linear(in_features=1472, out_features=3584, bias=False)
Linear(in_features=3584, out_features=1472, bias=False)
Dropout(p=0.1, inplace=False)
T5LayerNorm()
Dropout(p=0.1, inplace=False)
T5LayerNorm()
Dropout(p=0.1, inplace=False)
Linear(in_features=1472, out_features=384, bias=False)
